models/nn.pth (torch, 3094 bytes, 5 tensors)

fc1.weight f4 [10, 5]
00000000: 6023 d8bc fe6e 913e e0ac 88be 101c 783e
00000010: e6bf 31be f47c 0b3f 4268 bbbd d630 f83e
00000020: ea24 59c0 91ea f7bf b425 a23d 806a a8be
00000030: d0ce 88be 894c 10bf 470e aabe c91f 793f
00000040: f01c 09c0 bbdc 7a3c 3e21 3ebf 864e 02bf
00000050: 406d 7d3d 603c bdbe c4d0 81be 5803 43be
00000060: 9d9e acbe 7c71 9bbf 996e ccbe 8e0c ea3e
00000070: 1a09 56bf b632 32bd 46a4 aa3e 62ea 3e3f
00000080: af7f 2d40 3ba6 c1bf 3e1c 54bf 7229 4bbe
00000090: 0006 923e 902c c13e 44cb c43e 392f a4be
000000a0: 18a8 9c3e 0024 e9c0 c082 48bf 1738 4741
000000b0: 1bc4 a83d c16e 96bd 122f 2041 ecda b83e
000000c0: 91f5 1ec0 4b02 9bbd
-0.026384056 0.28404993 -0.26694393 0.24229455 -0.1735836 0.5448754 -0.09150745 0.4847476
-3.392878 -1.9368459 0.079173476 -0.32893753 -0.26720285 -0.56366783 -0.33214018 0.97314125
-2.1423912 0.015311415 -0.74269474 -0.5090107 0.061871767 -0.36960125 -0.25354588 -0.19044244
-0.33714762 -1.2144008 -0.3992813 0.45712703 -0.8360764 -0.043505393 0.33328456 0.7457639
2.7109182 -1.5128855 -0.82855594 -0.19840029 0.28520203 0.3772931 0.3843633 -0.32067278
0.30596995 -7.2856445 -0.7832451 12.451194 0.08240529 -0.073453434 10.011492 0.36104524
-2.4837382 -0.07568797

fc1.bias f4 [10]
00000000: e8af 7fbd eee0 0b3f 6959 9fbd 3272 273e
00000010: 8856 25be f60d 4d3d 38ac 0440 8881 69be
00000020: 209c 48bf 43c2 883e
-0.062423617 0.5464009 -0.077807255 0.16352156 -0.1614629 0.050062142 2.0730114 -0.22803319
-0.7836323 0.2671071

fc2.weight f4 [10, 10]
00000000: e02c 70bd 5395 823f b346 e4bd 16f1 ce3c
00000010: 7cd3 8c3d 3a38 d63d 9f24 333f 2a3d 99bd
00000020: 78ac 52be d6e8 67bf 589c b6bd ef50 7d3f
00000030: a31c 463e ff54 94be 929f 493e c5e4 713e
00000040: e19d fa3e 0ff7 8ebe a727 94be 3f3e 9cbf
00000050: 3c94 fb3d 7e85 78be 9787 2bbe cb0e 0f3e
00000060: 7d58 30be 108b 2dbd cca7 b7be 6f37 863e
00000070: d618 1bbe 18ef 46bd d0a7 22bd f4fb 9abd
00000080: 554a adbe f6ce 01bc e4d4 1cbe cb10 103e
00000090: 6a6d 46bf e08a d1bc 11e9 b5be 0562 4dbe
000000a0: bd1a 32be bf71 8d3f 226c 143e 806b bf3d
000000b0: 00c0 4fb8 8b8a 3fbe 1eee 9d3e 25e2 983e
000000c0: 0f77 09bf 24d2 d9bf 4470 03be 99a5 323f
000000d0: 6800 2dbe 5d65 053f 857e 953e 93aa cfbe
000000e0: 3817 4b3f 5e7e c0bd 7a28 14bf 23c0 7cc0
000000f0: 9eac 513e dbc3 2ec0 43ae a0be d270 1ac0
00000100: 8b6e 983e e430 91bc ba81 c53f f934 84be
00000110: 65fa 08c1 f0bf b5bd d0df 00bd ecb9 f93e
00000120: 7bf9 38ba fdd0 9b3e ae84 ffbd a932 3f3d
00000130: 778c 643e f857 a1bd 9930 5cbf f1fb f4bf
00000140: 808f ae3b abf8 8e3f 3cf2 e4bd 9740 c83e
00000150: f5aa 843e 2d66 bbbe 0753 3e3f cc86 84bd
00000160: 0322 673f 4587 6dbf c293 7abe 50e9 8dbe
00000170: 0c6f 043e 2a33 27be 6029 9bbe 8298 143e
00000180: f623 b6bd 10a9 d2bc a4e4 57bd ce42 87be
-0.058636546 1.020182 -0.11146297 0.025261443 0.06876275 0.10459943 0.69977754 -0.07482369
-0.20573604 -0.90589654 -0.08916539 0.9895162 0.19346862 -0.28971097 0.19689777 0.23622425
0.48948577 -0.27922866 -0.28936502 -1.2206496 0.12284133 -0.24269673 -0.16750942 0.13970487
-0.17221256 -0.04236895 -0.35870206 0.26214167 -0.15146193 -0.04856786 -0.03971082 -0.075675875
-0.33845773 -0.0079228785 -0.15315586 0.14068906 -0.775107 -0.025578916 -0.35529378 -0.20056923
-0.17393012 1.1050338 0.14494374 0.09346676 -4.953146e-05 -0.18705194 0.30845731 0.29860035
-0.53697294 -1.7017255 -0.12835795 0.6978393 -0.16894686 0.52107793 0.2919809 -0.40559825
0.79332304 -0.09399103 -0.5787426 -3.949227 0.20476004 -2.730704 -0.3138295 -2.413136
0.29771838 -0.017723508 1.5430214 -0.25821665 -8.5611315 -0.088745 -0.031463444 0.4877466
-0.00070562185 0.30432883 -0.124764785 0.046679173 0.22319208 -0.07878107 -0.86011654 -1.9139386
0.005327165 1.1169637 -0.11179015 0.39111778 0.2591168 -0.3660139 0.7434544 -0.06471023
0.9028627 -0.9278453 -0.24470428 -0.27717066 0.12932986 -0.16328111 -0.30305004 0.14511302
-0.08893578 -0.02571538 -0.052708283 -0.26418155

fc2.bias f4 [10]
00000000: abc1 b73f 4b07 6f3f c82f 8ebe 742c bebd
00000010: 00b2 7a3f 8bf6 183f 12e6 883f dec4 5e3f
00000020: 3ac5 493f c8f6 63be
1.4355978 0.93370503 -0.2777083 -0.092858225 0.97927856 0.59751195 1.0695212 0.87019145
0.7881657 -0.22262108

fc3.weight f4 [1, 10]
00000000: c8b7 073f 6039 293f 1aff 4fbe 6de2 923e
00000010: 5c5b 6f3f 7ced 743f f66a 2c3f 1d90 733f
00000020: 54b5 f53d 0245 69bd
0.530148 0.6610317 -0.20312157 0.28688374 0.9349878 0.9567487 0.6735071 0.95141774
0.11997476 -0.056950577
