models/nn1.pth (torch, 7012 bytes, 13 tensors)

network.0.weight f4 [10, 3]
000000 93 d6 cf be 3e 83 fd bc 5d 7d ee 3e f7 77 c4 be
       -0.40593395 -0.03094637 0.4658002 -0.38372776
000010 c5 f4 f9 39 4e 28 e5 be fc d7 7c 3c cd 04 2b 3b
       0.00047675348 -0.44757313 0.015432354 0.002609539
000020 11 b0 28 3f 61 50 c2 be 03 ca 56 bc 5d 8c fa 3e
       0.65893656 -0.3795195 -0.013109687 0.48935214
000030 27 28 16 bc 4d da 87 3b 5f a9 57 3f a7 7b 7e 3e
       -0.0091648465 0.0041458965 0.84242815 0.24851857
000040 14 e2 5c bb 4c 3b c5 be df a9 ca be 2d 9a b7 bc
       -0.003370409 -0.38521802 -0.39582726 -0.022412384
000050 9b 6e 14 3f 54 fb b0 3e ab 96 c6 bc 9f 04 99 3e
       0.5798127 0.34566748 -0.024241766 0.29886338
000060 57 c7 52 3d 7b 09 f1 bb 9c 16 a9 be 1d d5 81 3d
       0.051459637 -0.0073558665 -0.33025062 0.06339476
000070 9b de 56 3a da 8c 14 bf
       0.0008196623 -0.5802742

network.0.bias f4 [10]
000000 3e 1f c1 3d 1c 39 9f be 73 fa 92 be 17 18 ae 3d
       0.09429787 -0.31098258 -0.28706703 0.085006885
000010 d5 7e 03 be 7f 8a df 3e 6d 0c 5e bd 92 b1 5e 3e
       -0.12841351 0.43660352 -0.05421107 0.21747425
000020 91 0e 15 3f 5b 15 2d bf
       0.5822535 -0.6761071

network.2.weight f4 [10, 10]
000000 73 6c 9b 3e 13 6d 58 be d9 f7 4d be 7c 80 ae be
       0.30356178 -0.21135359 -0.20114078 -0.340824
000010 3b e0 67 be f8 2b 59 bd 8a f4 85 bd c0 11 32 3e
       -0.22644131 -0.053020447 -0.06540783 0.17389584
000020 b1 cf ae 3d 2f 71 61 be 7a 02 2b bd 89 d5 ff bd
       0.08535708 -0.22015832 -0.04175041 -0.124919005
000030 4b 58 19 be 15 06 3d be cf c7 bf be 33 45 5e 3d
       -0.14975087 -0.18459351 -0.3745713 0.054265212
000040 2f 39 9a be 62 bd 43 3e 27 8c c0 3e 3e 88 86 be
       -0.30121753 0.19115213 0.37606928 -0.2627582
000050 cd a6 88 3e 4d 24 7d 3e 90 6d da 3e 5c 46 ac 3e
       0.2668976 0.24720879 0.42661715 0.3364743
000060 33 9d 80 3e e2 13 f3 3d d9 ad 05 bb bd f3 f3 3d
       0.25119933 0.11869027 -0.002039781 0.11911724
000070 03 c8 61 bd 01 4e 25 bd 28 60 4f 3e 00 0b 50 3e
       -0.055122387 -0.040357593 0.20251524 0.20316696
000080 9e b6 6b be db db 8e 3d eb 10 07 bf 37 94 d8 3d
       -0.23018882 0.06975528 -0.5276019 0.10575145
000090 76 07 6f 3e c7 0f b5 3d 10 19 58 3e 27 45 db 3d
       0.2334269 0.088409 0.2110331 0.10706549
0000a0 7e 7d f3 be e6 e2 f2 3d 1c 2c c1 3d 16 f1 99 be
       -0.4755668 0.11859684 0.09432241 -0.30066746
0000b0 ee af 4c be 4b 20 04 be 83 70 50 3e 2f f3 03 3e
       -0.19988987 -0.12902944 0.2035542 0.12885736
0000c0 55 0d 97 3e 0d 38 61 be c1 ad f4 3e a7 8b 6b 3d
       0.2950236 -0.21994038 0.47788814 0.05750623
0000d0 24 bb f1 3d 99 ec 93 3e b4 99 34 be 5b d9 3b be
       0.11803272 0.28891447 -0.17636758 -0.18344633
0000e0 ba e5 42 3e 2f a3 5d be 89 32 cf bd d8 5e ff bd
       0.19032946 -0.21644281 -0.10117061 -0.12469262
0000f0 57 f8 ed 3d 8d c1 ab 3d 75 03 54 be 71 29 cc be
       0.11619633 0.08386526 -0.20704444 -0.39875367
000100 41 d7 bd be 76 91 e6 3d a0 ef 9b be f9 41 ce 3d
       -0.37078288 0.11258213 -0.30456257 0.10071177
000110 c7 70 42 3e 83 ad 23 be b2 3e 99 be 60 c5 d6 3a
       0.18988334 -0.15984158 -0.29930645 0.0016385727
000120 8f f4 63 be 49 b2 d6 bc 60 df 19 be c1 85 b0 3e
       -0.2226126 -0.02620806 -0.15026617 0.34477046
000130 76 ae 6b be 6d 1a 32 3e 77 87 d5 3d a5 fb b0 39
       -0.2301577 0.17392893 0.104262285 0.00033756826
000140 eb bf f1 bd 67 dd a0 bd 32 1b 62 3e bd 1c ae bb
       -0.118041836 -0.07854729 0.22080687 -0.0053134845
000150 b0 c1 73 be dc 0b e4 bb b6 1b 44 be 10 60 3d 3c
       -0.23804355 -0.0069594216 -0.19151196 0.011558548
000160 bc 74 81 3d 28 0e 88 3d dc e4 0f 3f e4 40 e9 be
       0.063210934 0.06643325 0.56208587 -0.4555732
000170 c8 b4 8f 3e 0d a9 00 3f 14 73 34 bc c2 d6 2e be
       0.28067613 0.5025795 -0.011013765 -0.17074111
000180 49 9e 0a 3f 2a 3e 97 3e de 41 ce 3d 26 82 15 be
       0.54147774 0.29539615 0.10071157 -0.14600429

network.2.bias f4 [10]
000000 7a bf 1c 3f 58 94 02 3f 25 84 10 bf 32 49 a4 3e
       0.6122967 0.51007605 -0.56451637 0.32087094
000010 e8 f3 37 3f 17 58 01 bf 5a b5 bd 3e f1 24 f1 3e
       0.71856546 -0.5052504 0.37052423 0.47098497
000020 6a d6 5f bd f4 ba f3 be
       -0.05464784 -0.4760357

network.4.weight f4 [10, 10]
000000 d1 a4 d7 be 7c a5 fa be 8c f7 e9 bd a6 a9 de 3d
       -0.42117932 -0.4895438 -0.11424169 0.108722016
000010 68 44 c5 3d ed dc ae 3e 6b 21 3f 3c 92 ff 01 bf
       0.09632188 0.34152928 0.011665682 -0.50780594
000020 3e 23 5b 3d 20 70 d9 3e e5 0b 09 bd d6 25 38 be
       0.053500406 0.42468357 -0.03345861 -0.17983183
000030 b7 af b7 be d3 0d c2 be e2 fd db be 2f 5b d2 bc
       -0.35876247 -0.37901172 -0.42967135 -0.025678245
000040 c0 35 83 3c dc fe e6 bc e9 02 bd 3d 2a 96 31 3e
       0.016016841 -0.028197698 0.09229071 0.1734244
000050 dd 90 6e be 6d 1f 30 bf c0 a6 82 3e 40 60 bb be
       -0.23297448 -0.6879795 0.25517845 -0.3659687
000060 8f 9b 76 3e 6c 3d 5b 3e 82 a8 a5 be a5 e9 69 3e
       0.24082778 0.2141015 -0.32355124 0.22843035
000070 9d 59 93 be 48 ef 41 3e 12 49 1d 3e e5 96 85 3e
       -0.28779307 0.18938935 0.15359905 0.26091686
000080 44 9a 5d be 37 96 20 3d da 47 98 3d 90 9b 86 be
       -0.21640879 0.039205756 0.074355796 -0.2629056
000090 5d 7d c6 3e cd b1 bd 3e 47 c1 24 bd 4b fe ba be
       0.3876752 0.37049714 -0.040223386 -0.36522135
0000a0 e9 f6 ea 3e 4d 7a 23 3e 1e 93 3a be 85 22 09 be
       0.45891502 0.15964623 -0.18220183 -0.13392074
0000b0 cd 86 4d 3e d1 c4 0d be cd 55 c8 3e ee 12 9f 3e
       0.20070954 -0.13844611 0.3912796 0.3106913
0000c0 d9 94 4a bd 08 9a 21 be 86 d4 0c 3d 25 76 4a 3e
       -0.04945836 -0.15781415 0.034382366 0.19771631
0000d0 ba 8b a6 be 9e b5 3b 3e f9 e2 e5 3d 7a e3 f6 3d
       -0.32528478 0.18331 0.11224932 0.120551065
0000e0 42 d9 9b 3e 91 3d 66 bc fb aa 32 3d 47 66 6b be
       0.30439192 -0.0140527645 0.04362009 -0.22988234
0000f0 07 7b 36 3e 2c 39 40 3e 71 b9 ab be d1 3c 5a be
       0.17820369 0.1877181 -0.33539918 -0.21312262
000100 f8 58 f9 3d 86 45 d7 bb 7c c8 bd 3c 31 d5 3b 3d
       0.121751726 -0.006569567 0.023166887 0.045857612
000110 f8 c1 8f 3c 71 bf 9c be 85 36 9d bc 0f ec 41 3e
       0.017548546 -0.30614808 -0.019191036 0.18937705
000120 4b 79 c9 be fb 01 d5 bd b6 34 4e bd 09 c1 88 3d
       -0.39350352 -0.10400768 -0.050343238 0.066774435
000130 62 91 13 3d 12 c7 83 3e 18 b3 a3 3d 26 42 05 be
       0.03602732 0.25737816 0.07993144 -0.13013515
000140 5c 56 c5 bc 37 1d c1 bd b3 54 db 3c a2 5e dc 3c
       -0.02408903 -0.094294004 0.026773786 0.026900593
000150 89 a5 3e 3e 19 0f a1 3e 55 86 b7 3e 19 72 9d 3d
       0.18617834 0.3145683 0.35844675 0.07687778
000160 0f 50 98 3d 6e 89 9e 3e 0c 4d 9a 3d a7 04 0d 3e
       0.07437145 0.30964226 0.07534227 0.13771306
000170 f9 e3 8a be c8 fd 5e bd d1 de 42 be 0e 22 d9 be
       -0.27127054 -0.054441243 -0.1903031 -0.42408794
000180 fe 8d 6b 3e 39 27 05 be 60 c7 96 bc 35 30 51 3e
       0.23003384 -0.13003244 -0.018405616 0.20428546

network.4.bias f4 [10]
000000 99 c9 07 bf 16 02 ef 3e 22 e7 0b be b7 7e 54 3f
       -0.5304199 0.4668128 -0.13662389 0.8300585
000010 41 ef e0 3e fb 47 0f 3e b8 e1 3d 3f e6 45 39 3f
       0.43932536 0.13992302 0.74172544 0.7237228
000020 5c 1f e1 be b8 64 0c be
       -0.43969238 -0.13710296

network.6.weight f4 [10, 10]
000000 00 3a 26 bf a9 4c 43 3d ed 9b 97 be bf a2 db 3e
       -0.6493225 0.04768053 -0.2961115 0.42897603
000010 9a c5 8d 3d 17 c3 ef 3c 70 4b a9 3e 90 0b 13 3c
       0.06922455 0.02926783 0.33065367 0.008974925
000020 70 44 e3 bc 84 9b b1 be 82 a3 07 be 12 8e e7 3c
       -0.027742594 -0.34688962 -0.13245967 0.028265987
000030 98 c4 21 3d 6e 9f c1 3e 36 6b d0 3d cd 2b cf bd
       0.039494127 0.37816948 0.10176699 -0.10115776
000040 f0 2c ab 3e 66 20 4f 3e c5 1d 25 be db 8b 09 3e
       0.33432722 0.20227203 -0.16124637 0.13432257
000050 0e a0 fe be 5d 7e f4 3e b4 6a 13 bf b2 f1 10 3d
       -0.49731487 0.47752658 -0.5758469 0.03538675
000060 3a fd 0d 3b 97 ec 82 be 1d 76 71 3e b8 6b 12 3c
       0.0021665827 -0.2557113 0.23580213 0.008936815
000070 8c df 2a be 39 9b 95 3e c5 97 4c be 28 1f 08 3e
       -0.16686839 0.29219988 -0.1997977 0.13293135
000080 61 d8 3f 3e 5b 52 2a be c7 2f 79 be 54 8b a2 bd
       0.18734886 -0.16632979 -0.24334632 -0.07936731
000090 ed 0b 3f bd 61 da 76 bc 4f c6 64 be d8 6a 3d 3e
       -0.046642233 -0.015066714 -0.22341274 0.18497789
0000a0 29 ef 90 3c ad e0 ec 3e 70 68 88 3d e0 b8 6d be
       0.017692165 0.46265164 0.06660545 -0.23215055
0000b0 73 48 72 bd 92 a9 b4 be a9 13 ae bd f1 ce 8a 3d
       -0.059151124 -0.35285622 -0.084998436 0.06777752
0000c0 6f 8e 26 3e f3 ea 7c 3b cc b9 ca bb 3f 4e 7a 3e
       0.16265272 0.003859219 -0.0061866995 0.24443911
0000d0 21 77 12 3e 03 44 0d bc 18 c2 75 3e 3e 87 76 be
       0.14303257 -0.008622172 0.23999822 -0.24075028
0000e0 b1 93 04 bf 30 e3 02 3d c6 ec 8d bb eb 4d bd bc
       -0.5178786 0.031954944 -0.004331204 -0.023108443
0000f0 c1 45 79 be 39 00 a6 3c 08 5b 32 bf 51 63 f4 3e
       -0.24343015 0.020263778 -0.6967015 0.47732022
000100 27 a7 77 3e 2b 10 a0 3e 41 1c 86 3e fe 10 d8 3e
       0.24184857 0.31262335 0.2619343 0.42200464
000110 08 12 18 bf fd 39 00 bd 07 cd 8e be 76 af 58 3e
       -0.59402514 -0.031305302 -0.27890798 0.21160683
000120 76 b4 51 be 2b 6a 1a 3e 92 c6 81 3d 88 2c d4 3e
       -0.20478997 0.15079562 0.063367024 0.41440225
000130 f0 39 90 3e 5f c4 d1 bc e2 34 b5 be 1a 80 0e 3b
       0.28169203 -0.025606332 -0.3539191 0.0021743835
000140 cf 29 dc be ec 97 d1 3d 5d 76 81 be 2d e0 d8 3e
       -0.43000647 0.10234055 -0.25285617 0.42358533
000150 a9 01 a7 3e ec 6e 7f 3d 83 c5 d4 bd 05 85 60 3e
       0.32618454 0.062361643 -0.10389235 0.21925743
000160 55 f5 6f 3e f7 d1 bb be 3d 70 3a be c9 0c 0c 3f
       0.2343343 -0.36683628 -0.18206878 0.5470701
000170 00 d5 45 be e7 e2 a3 3d 9e ca ad 3e ff 0b d8 bd
       -0.19319534 0.080022626 0.33943647 -0.10549163
000180 be 3c 31 3f 3b aa 45 3e 18 d3 61 be 44 1a 36 3e
       0.6923331 0.19303219 -0.22053182 0.17783457

network.6.bias f4 [10]
000000 08 f0 57 3f 17 40 6d 3f c6 7e 2a 3f 25 44 3e be
       0.84350634 0.9267592 0.6659969 -0.18580683
000010 88 1b 5e be 14 41 14 3e 57 d7 e5 3e db 9a 42 3f
       -0.2169019 0.1447795 0.44890854 0.7601754
000020 25 84 cb 3e 0c eb 15 3f
       0.39749256 0.5856178

network.8.weight f4 [10, 10]
000000 01 06 fe be 62 37 ea be 31 83 bf be 83 33 83 3d
       -0.49613956 -0.4574538 -0.3740478 0.064063095
000010 5a 5a 37 be 27 07 36 be a2 9f 9e be fc 93 43 3b
       -0.1790556 -0.17776166 -0.30981165 0.0029842844
000020 6e 97 f1 bd 92 7f bb be d0 30 05 3e 20 1d b0 be
       -0.11796461 -0.36620766 0.13006902 -0.3439722
000030 65 e2 bf 3a 83 63 8a be aa 3c 89 3d e6 45 85 3b
       0.0014639614 -0.27029046 0.06701024 0.0040671704
000040 8d 67 86 bc 4d 58 b7 be 84 49 95 be e4 83 d1 be
       -0.016406799 -0.35809556 -0.2915765 -0.40920937
000050 72 2b 9c 3e eb 1f cc 3d 3e bd c3 3e 3e cc 44 3d
       0.30501896 0.09967025 0.38230318 0.048046343
000060 03 f0 1f 3d 75 b3 f7 bd 32 30 bb 3e 7e b7 f8 3e
       0.039047252 -0.120947756 0.36560208 0.48577493
000070 31 fa 10 3e 7f a3 bc 3e d8 5d d3 3d cd ce 1b 3f
       0.1415794 0.36843488 0.10320634 0.6086243
000080 73 4f c1 3e 06 f5 62 3c ef 5b 3f be b4 9c 13 be
       0.37755927 0.013852363 -0.18687414 -0.14415246
000090 93 50 59 3e 23 bd 91 3e d5 60 e0 3e 86 12 49 3f
       0.21222143 0.28464612 0.43823877 0.7854389
0000a0 bc 74 1d 3f ea e3 8c 3e e5 ac 28 3e b6 75 ef bc
       0.6150625 0.27517635 0.16472204 -0.029230934
0000b0 67 1a 4b be 2f 7a 62 be 68 8d 3d 3e 2b 78 d6 3d
       -0.1983429 -0.22116922 0.18510973 0.10472139
0000c0 83 8e b1 3d bc 3b ab 3e 05 d5 91 3d 60 f6 ac 3e
       0.0866976 0.3344401 0.071207084 0.3378172
0000d0 15 c5 c9 3d fd 15 41 be f9 7c 4b be a1 4b e4 3d
       0.098520435 -0.18856044 -0.19871892 0.111472376
0000e0 86 ca eb 3e 07 e9 a8 3d ce c8 53 3e 43 d2 13 3e
       0.4605295 0.082475714 0.2068207 0.14435677
0000f0 d8 cd bf 3e 0f c1 25 3e 9e be 68 3e e9 a9 0a 3e
       0.37461734 0.16186927 0.22728965 0.13541378
000100 98 34 f0 bd 00 1a ec be 77 3a d4 3e 02 80 c7 3d
       -0.117287815 -0.46113586 0.41450855 0.097412124
000110 2e 62 5b 3e a6 42 f5 3e d8 1d 72 bd 64 39 36 3c
       0.21424171 0.4790241 -0.059110492 0.011122081
000120 7c d1 b5 3d b3 d2 70 bd 91 c3 50 be 07 80 7b 3c
       0.088778466 -0.05879469 -0.20387103 0.015350348
000130 a7 e4 fb bd 19 b7 9a 3b 0c ce 81 be b6 62 e5 be
       -0.12299471 0.004721534 -0.25352514 -0.44801873
000140 a4 9a bc be 98 05 88 be 6c df 4b be ea 9e 4e 3d
       -0.3683673 -0.26566768 -0.19909447 0.05044452
000150 5d 7d 86 be f5 b6 d0 be 1b 38 50 be 8c 54 f5 bd
       -0.2626752 -0.40764585 -0.20333903 -0.11979017
000160 6d e3 c6 be 89 1e 61 be f6 f1 05 3f 0f 11 0f 3f
       -0.38845387 -0.21984304 0.5232233 0.55885404
000170 76 fc bd 3e 43 9f 9c be 9c 45 c6 be c1 0a 2c 3d
       0.37106675 -0.30590257 -0.38724983 0.042002443
000180 07 76 be 3e 9a 07 9b 3e 32 2f 11 3e 2c 76 e0 3e
       0.37199423 0.30279237 0.1417816 0.43840158

network.8.bias f4 [10]
000000 8b b5 08 bf 89 08 59 bf 14 89 4c 3f 6c 30 76 3f
       -0.5340201 -0.8477865 0.79896665 0.96167636
000010 f9 7b 67 3f fe 39 f0 3d 2d 21 0d 3f a5 2d e3 be
       0.9042354 0.11729811 0.5512875 -0.44370762
000020 67 39 12 bf fa b3 bd 3e
       -0.5711884 0.37051374

network.10.weight f4 [10, 10]
000000 22 06 9d 3e 87 4a 01 be 2a 47 38 bd 3d ed c8 bd
       0.3066874 -0.12626086 -0.044989742 -0.098108746
000010 3f e6 fc bd 43 98 12 be a6 24 4b 3d 97 6c 0c 3d
       -0.123486035 -0.14315896 0.049595498 0.034283247
000020 01 bb 94 3e 65 75 e4 be 91 15 0a be 32 fe e0 be
       0.29048923 -0.44620815 -0.1348479 -0.43943936
000030 b6 0f 62 be 4d 2b 08 bf ea 61 21 be 4d 83 5e 3e
       -0.22076306 -0.5319107 -0.15760008 0.21729775
000040 88 64 26 be b3 9c 8b be 16 7c 78 3e 8a dd 01 3d
       -0.16249287 -0.2726799 0.24266085 0.031705417
000050 95 68 d0 3d e6 d4 61 be c4 64 ad be 79 b9 13 bf
       0.101761974 -0.2205387 -0.3386594 -0.57704884
000060 16 25 e0 be 2a 55 64 be 58 01 9e be 54 15 dc 3d
       -0.43778294 -0.22298113 -0.308604 0.107462555
000070 5e f1 82 3e fb f3 83 be 39 4f 5d 3d 9b d3 11 bd
       0.25574774 -0.2577208 0.05403063 -0.035602193
000080 9e e8 d5 be 99 88 fc be 68 74 19 bf 7e ea 0b be
       -0.41779035 -0.49322966 -0.59943247 -0.1366367
000090 21 e2 d8 be 6f d2 3c 3d f5 ac 20 3c 26 bf bd bd
       -0.42360023 0.046099123 0.009806861 -0.09264974
0000a0 07 94 a1 3e 21 8d 35 bd 12 9e 62 3c 33 f7 80 be
       0.31558248 -0.044324044 0.013831632 -0.25188598
0000b0 1a 37 97 be a4 cc 9c bd d0 1b 0c be 83 f8 59 3e
       -0.29534227 -0.076562196 -0.13682485 0.21286206
0000c0 08 44 07 3e 8f a2 26 3c 91 d4 29 3d b9 2c bb be
       0.13209546 0.010170593 0.041462485 -0.36557558
0000d0 fe 85 b8 be ea f1 b4 be d7 d1 0a bf eb ca b8 be
       -0.36039728 -0.35340816 -0.5422644 -0.36092314
0000e0 f3 dd f4 be 1e c9 05 be d5 a9 d8 3d 78 07 b7 be
       -0.47825584 -0.13065001 0.10579268 -0.35747886
0000f0 bd d8 d4 3d d7 ed 8a bd 82 b0 6c be 11 5e 97 be
       0.10392902 -0.067836456 -0.23114207 -0.29563954
000100 13 4f fb be 39 b9 c8 3d f7 31 a8 be dc 82 8a be
       -0.49083766 0.098009534 -0.3285062 -0.27052963
000110 ce b6 ae 3e 21 59 a6 be 9c fe d5 be 68 db 1b be
       0.34123844 -0.32489875 -0.41795814 -0.15220416
000120 65 bd cc 3e 8a 30 24 3e 0b 2b 12 3f 3e 58 c4 3e
       0.39988247 0.16034141 0.5709693 0.38348573
000130 94 91 ca 3e da df 1b be 33 63 73 be 4b df 0c 3f
       0.39564192 -0.15222111 -0.2376831 0.5502822
000140 9f ba 8e bd 17 8d a1 be 47 32 ac bd 3a b4 d3 be
       -0.06969189 -0.31552956 -0.08408027 -0.4134844
000150 64 a7 26 be ba 81 f5 bd 22 49 5f bc 15 ba 63 3d
       -0.16274792 -0.11987634 -0.013628276 0.055597384
000160 94 84 95 3e 33 5d aa 3d 07 f6 17 bf 40 97 df 3e
       0.29202712 0.083185576 -0.5935978 0.43670082
000170 d5 49 da 3e 65 6e dc 3e 78 7a ff 3d ac 49 6b 3e
       0.42634454 0.43052974 0.12474531 0.22977322
000180 96 e1 37 3e 99 af 80 3d 6d ec f6 bd 58 20 a6 3e
       0.17957148 0.062834926 -0.120568134 0.3244655

network.10.bias f4 [10]
000000 56 90 14 be c5 2a 89 3e c0 33 88 be a6 67 9e be
       -0.14508185 0.26790443 -0.26601982 -0.30938452
000010 41 eb d9 be f4 9f 91 be 33 56 a9 be 5d f3 40 3f
       -0.42562297 -0.28442347 -0.33073577 0.7537134
000020 be a2 27 be 65 30 e4 3e
       -0.16370675 0.44568172

network.12.weight f4 [1, 10]
000000 25 55 d7 bd a1 67 e6 be 9c db eb be 93 90 9a be
       -0.10514287 -0.45000938 -0.46065986 -0.30188426
000010 c4 05 0d be c9 bf f5 be 9c 32 fd be 4a ec eb 3e
       -0.1377173 -0.47997883 -0.49452674 0.46078712
000020 73 ab 08 be f6 74 c0 3e
       -0.13346653 0.37589234
