models/nn1.pth (torch, 10676 bytes, 25 tensors)

fc1.weight f4 [10, 3]
-1.07837905e-20 0.00047308687 -0.07381655 0.05551245 0.22249067 0.69890964 0.37235075 0.40999925
0.13591665 0.3697044 0.07850633 0.2971306 0.4513359 0.017342566 0.02257465 -0.24740142
0.023861421 -0.3536606 0.12567413 -0.073928446 -0.52058536 0.49435663 0.004294771 -0.2541587
-0.9341621 -0.002509442 0.098223016 -0.03928009 -6.24642e-21 1.7303876e-13
00000000: 36b3 4b9e a508 f839 222d 97bd 0661 633d
00000010: 98d4 633e beeb 323f c2a4 be3e 6ceb d13e
00000020: bc2d 0b3e e549 bd3e edc7 a03d 8121 983e
00000030: 8015 e73e ff11 8e3c 79ee b83c cc56 7dbe
00000040: 0779 c33c 0113 b5be b8b0 003e cc67 97bd
00000050: 1545 05bf 501c fd3e 26bb 8c3b 1721 82be
00000060: 3f25 6fbf 7375 24bb 2629 c93d 29e4 20bd
00000070: abfb eb9d 07d3 422a

fc1.bias f4 [10]
0.0006099174 -0.71243376 1.292634 -0.5067706 1.2603427 0.5453119 1.2190579 1.1594728
-1.3278178 -3.7211453e-11
00000000: dde2 1f3a 0f62 36bf 0875 a53f b8bb 01bf
00000010: e952 a13f 9099 0b3f 170a 9c3f 9b69 943f
00000020: eff5 a9bf 5fa8 23ae

batch_norm1.weight f4 [10]
1.0 1.0 1.0 1.0 1.0 1.0 1.0 1.0
1.0 1.0
00000000: 0000 803f 0000 803f 0000 803f 0000 803f
00000010: 0000 803f 0000 803f 0000 803f 0000 803f
00000020: 0000 803f 0000 803f

batch_norm1.bias f4 [10]
0.0 0.0 0.0 0.0 0.0 0.0 0.0 0.0
0.0 0.0
00000000: 0000 0000 0000 0000 0000 0000 0000 0000
00000010: 0000 0000 0000 0000 0000 0000 0000 0000
00000020: 0000 0000 0000 0000

batch_norm1.running_mean f4 [10]
0.0 0.0 0.0 0.0 0.0 0.0 0.0 0.0
0.0 0.0
00000000: 0000 0000 0000 0000 0000 0000 0000 0000
00000010: 0000 0000 0000 0000 0000 0000 0000 0000
00000020: 0000 0000 0000 0000

batch_norm1.running_var f4 [10]
1.0 1.0 1.0 1.0 1.0 1.0 1.0 1.0
1.0 1.0
00000000: 0000 803f 0000 803f 0000 803f 0000 803f
00000010: 0000 803f 0000 803f 0000 803f 0000 803f
00000020: 0000 803f 0000 803f

fc2.weight f4 [10, 10]
-0.0002733564 -0.74960274 0.21867241 -0.3285439 -0.20229451 0.030251773 0.48115614 0.37408867
2.7938445e-20 4.9223383e-19 -4.765652e-21 -0.12770577 0.23538628 0.089650035 0.18266182 -0.22714669
0.40376598 0.5081377 0.39952895 8.373308e-20 1.0203726e-17 -0.16711244 -0.007587623 -0.19087018
0.09027281 0.21115418 0.13356875 0.10155877 -0.23807117 3.7665673e-17 3.0035923e-20 -0.82182246
-0.16813932 -0.14074895 0.21517046 0.20665018 0.30216306 0.02288738 0.2000751 -0.00036930337
-1.233775e-05 0.17530988 -0.13024007 0.1807123 0.3025449 -0.1808993 -0.3089338 0.4094955
-0.8441889 3.1172372e-20 -1.467591e-20 -0.1961328 0.15693156 -0.13739175 0.07595475 -0.16429594
0.80604535 0.06971197 0.15362436 -5.4020522e-05 -0.0024529411 -0.15333533 0.42997023 0.005482445
0.18885385 0.099335745 0.74509037 0.40317848 0.38781926 -1.1752009e-16 -5.8052394e-19 -0.54652095
0.09715655 -0.4634041 0.05969387 -0.071844146 0.8016856 0.13240165 0.12799431 3.9394187e-18
-2.2990336e-21 -1.4620444e-18 2.1235257e-19 -4.9542238e-21 -0.0003816602 -6.029902e-07 -5.8056975e-07 2.1234913e-05
2.6915293e-22 3.375321e-08 0.00024097828 6.947381e-13 -0.0010913912 -0.00070267037 -1.6922398e-22 -3.4322947e-21
9.523333e-05 2.7445445e-05 3.9927548e-17 4.800528e-07
00000000: 4651 8fb9 f7e5 3fbf a9eb 5f3e e836 a8be
00000010: 4b26 4fbe 91d2 f73c 195a f63e 8d88 bf3e
00000020: 82ef 031f 2348 1121 8f0a b49d 4dc5 02be
00000030: 1a09 713e 709a b73d b30b 3b3e 2499 68be
00000040: 6aba ce3e 5015 023f 0f8f cc3e 8bb5 c51f
00000050: bc39 3c23 861f 2bbe 98a1 f8bb 7973 43be
00000060: f3e0 b83d cd38 583e 3fc6 083e 0bfe cf3d
00000070: eec8 73be c7b3 2d24 34d7 0d1f f562 52bf
00000080: b72c 2cbe 7e20 10be a555 5c3e 1b9c 533e
00000090: 1eb5 9a3e 517e bb3c 7de0 4c3e 0f9f c1b9
000000a0: 3cfe 4eb7 6f84 333e a75d 05be a50c 393e
000000b0: 2ae7 9a3e ab3d 39be 922c 9ebe 65a9 d13e
000000c0: c41c 58bf 1635 131f 2c9c 8a9e 09d7 48be
000000d0: abb2 203e 6cb0 0cbe 2a8e 9b3d 323d 28be
000000e0: fd58 4e3f 26c5 8e3d b44f 1d3e 1894 62b8
000000f0: 86c1 20bb f003 1dbe 0f25 dc3e 15a6 b33b
00000100: e762 413e 8a70 cb3d 3ebe 3e3f 696d ce3e
00000110: 3f90 c63e cf7d 07a5 2657 2ba1 cce8 0bbf
00000120: 03fa c63d 4d43 edbe 8f81 743d 0623 93bd
00000130: 443b 4d3f 4c94 073e f110 033e c256 9122
00000140: c7b5 2d9d 7ac2 d7a1 a0b3 7a20 502a bb9d
00000150: 9119 c8b9 2cdd 21b5 73d8 1bb5 a121 b237
00000160: 66b1 a21b 0cf8 1033 1daf 7c39 288d 432b
00000170: 030d 8fba 6933 38ba 4994 4c9b 1eab 819d
00000180: 01b8 c738 a53a e637 2122 3824 fadc 0035

fc2.bias f4 [10]
0.6656173 0.55055165 0.8941709 1.0167451 0.30484346 1.1954972 1.0264534 1.0886353
-0.0022942908 -4.8221037e-20
00000000: e565 2a3f f4f0 0c3f 62e8 643f b424 823f
00000010: 7114 9c3e 0d06 993f d362 833f 6758 8b3f
00000020: d05b 16bb a8b7 639f

batch_norm2.weight f4 [10]
1.0 1.0 1.0 1.0 1.0 1.0 1.0 1.0
1.0 1.0
00000000: 0000 803f 0000 803f 0000 803f 0000 803f
00000010: 0000 803f 0000 803f 0000 803f 0000 803f
00000020: 0000 803f 0000 803f

batch_norm2.bias f4 [10]
0.0 0.0 0.0 0.0 0.0 0.0 0.0 0.0
0.0 0.0
00000000: 0000 0000 0000 0000 0000 0000 0000 0000
00000010: 0000 0000 0000 0000 0000 0000 0000 0000
00000020: 0000 0000 0000 0000

batch_norm2.running_mean f4 [10]
0.0 0.0 0.0 0.0 0.0 0.0 0.0 0.0
0.0 0.0
00000000: 0000 0000 0000 0000 0000 0000 0000 0000
00000010: 0000 0000 0000 0000 0000 0000 0000 0000
00000020: 0000 0000 0000 0000

batch_norm2.running_var f4 [10]
1.0 1.0 1.0 1.0 1.0 1.0 1.0 1.0
1.0 1.0
00000000: 0000 803f 0000 803f 0000 803f 0000 803f
00000010: 0000 803f 0000 803f 0000 803f 0000 803f
00000020: 0000 803f 0000 803f

fc3.weight f4 [10, 10]
0.64251465 0.3116262 0.80542946 0.8773063 0.036774073 0.69958293 0.2801326 0.7095016
-2.410325e-19 1.4760379e-20 0.00018073837 -9.482312e-09 -0.001459283 -0.0011328778 3.140294e-18 -5.09033e-05
-2.4304774e-16 1.2631837e-10 -3.8015725e-05 0.0012252455 0.1791437 -0.20447896 0.26917264 0.19180092
0.13966623 -0.15196733 -0.43230456 -0.18366891 0.0010014842 0.00048044312 -0.30807278 -0.09024858
-0.14643647 -0.3332643 -0.21419066 0.22603214 0.067529865 0.13630159 2.5712168e-05 -5.130181e-18
-0.21284737 0.21368958 -0.66887814 -0.41580385 0.22399913 -0.016035508 0.20609233 -0.18434595
3.3726825e-13 -6.0958286e-07 0.0017895479 -0.00022490163 0.0005803776 2.9186632e-20 -0.00025646843 -9.100214e-11
-4.8138713e-21 -0.0013691592 9.051698e-09 -1.2205977e-07 -0.10316719 0.14639156 0.11881576 -0.10221173
-0.3097346 0.15668899 -0.3151353 -0.22215566 -2.934452e-21 1.32599e-18 0.067347586 -0.015872713
-0.016003959 -0.030686166 -0.015006277 -0.017018449 -0.06041994 0.0058614677 0.00012486137 0.00028150337
-2.2103855e-21 -3.34041e-12 -0.00036366304 -7.8839654e-19 -4.648195e-12 -2.776686e-06 -2.75638e-07 2.0738602e-09
1.753025e-21 0.0004486793 -0.0021046703 -0.0001581193 0.00085678085 -0.0009823758 -0.00021950746 -0.0018186412
-1.8532529e-06 -2.900707e-09 -0.0023579255 0.00016125933
00000000: d77b 243f 788d 9f3e a030 4e3f 2597 603f
00000010: 69a0 163d de17 333f 8a6d 8f3e e6a1 353f
00000020: cd47 8ea0 6868 8b1e 9684 3d39 a6e7 22b2
00000030: 6a45 bfba 127d 94ba 7ab6 6722 0181 55b8
00000040: 841b 8ca5 76e3 0a2f 1373 1fb8 6b98 a03a
00000050: 7271 373e ef62 51be ffd0 893e 7667 443e
00000060: aa04 0f3e 539d 1bbe 0657 ddbe b413 3cbe
00000070: 3c44 833a fce3 fb39 b7bb 9dbe 3fd4 b8bd
00000080: 71f3 15be 9ea1 aabe cc54 5bbe f874 673e
00000090: 194d 8a3d a592 0b3e 76b0 d737 3145 bda2
000000a0: a9f4 59be 71d1 5a3e 993b 2bbf 3ee4 d4be
000000b0: 0760 653e e65c 83bc de09 533e 2fc5 3cbe
000000c0: 7add bd2a 37a2 23b5 438f ea3a 92d3 6bb9
000000d0: 7b24 183a 79d4 091f 9c76 86b9 a71d c8ae
000000e0: e8dc b59d 5c75 b3ba ca81 1b32 890f 03b4
000000f0: 5249 d3bd abe7 153e ad55 f33d 6254 d1bd
00000100: 8995 9ebe 1473 203e 6a59 a1be c67c 63be
00000110: 8eb8 5d9d 7cae c321 88ed 893d 7e07 82bc
00000120: bc1a 83bc 8e61 fbbc e3dc 75bc 466a 8bbc
00000130: e67a 77bd 8e11 c03b 38ed 0239 be96 9339
00000140: 1303 279d 7a0f 6bac 07aa beb9 8fb1 68a1
00000150: 388b a3ac 1a57 3ab6 66fb 93b4 bc83 0e31
00000160: 6f74 041d b73c eb39 82ee 09bb d4cc 25b9
00000170: 9799 603a 10c3 80ba 962b 66b9 795f eeba
00000180: 49bd f8b5 c755 47b1 6d87 1abb b917 2939

fc3.bias f4 [10]
0.65835345 -0.00017227896 -0.6761402 -0.02550389 0.21317708 5.0704908e-20 -0.09648919 -0.014815247
2.5628121e-21 -8.380532e-05
00000000: da89 283f c8a5 34b9 8617 2dbf 89ed d0bc
00000010: 184b 5a3e 7972 6f1f 209c c5bd a6bb 72bc
00000020: ffa3 411d a3c0 afb8

batch_norm3.weight f4 [10]
1.0 1.0 1.0 1.0 1.0 1.0 1.0 1.0
1.0 1.0
00000000: 0000 803f 0000 803f 0000 803f 0000 803f
00000010: 0000 803f 0000 803f 0000 803f 0000 803f
00000020: 0000 803f 0000 803f

batch_norm3.bias f4 [10]
0.0 0.0 0.0 0.0 0.0 0.0 0.0 0.0
0.0 0.0
00000000: 0000 0000 0000 0000 0000 0000 0000 0000
00000010: 0000 0000 0000 0000 0000 0000 0000 0000
00000020: 0000 0000 0000 0000

batch_norm3.running_mean f4 [10]
0.0 0.0 0.0 0.0 0.0 0.0 0.0 0.0
0.0 0.0
00000000: 0000 0000 0000 0000 0000 0000 0000 0000
00000010: 0000 0000 0000 0000 0000 0000 0000 0000
00000020: 0000 0000 0000 0000

batch_norm3.running_var f4 [10]
1.0 1.0 1.0 1.0 1.0 1.0 1.0 1.0
1.0 1.0
00000000: 0000 803f 0000 803f 0000 803f 0000 803f
00000010: 0000 803f 0000 803f 0000 803f 0000 803f
00000020: 0000 803f 0000 803f

fc4.weight f4 [10, 10]
0.39636502 0.00023224564 -0.12423217 0.04289207 -0.6352014 7.783534e-15 -0.27660468 0.000882897
-0.0015016026 -0.0015821224 -3.5912355e-05 2.4333826e-20 1.4355658e-06 4.8026304e-21 -7.6336796e-08 2.5092996e-07
2.7493157e-20 -0.00015711717 -2.487075e-06 1.219557e-05 0.5292991 -1.5570441e-18 0.027235953 -0.049987074
-0.12650488 -1.2173339e-19 0.0059697423 4.4330558e-05 -3.2786276e-05 -9.517327e-09 -6.2371626e-05 -5.937983e-05
-4.2993274e-21 -5.1448756e-06 -4.1813642e-13 -3.2405452e-09 7.278463e-05 8.7088265e-05 0.00024407753 2.6363306e-08
-0.008856698 5.056489e-22 -0.52119076 0.10384144 0.278338 4.765671e-21 -0.12481381 -7.2815936e-05
-0.00023100193 0.0006341885 0.5672391 0.0022188425 0.4015556 -0.10464372 -0.31710133 9.024087e-07
-0.2430232 6.102989e-06 3.0088208e-21 0.00013420163 0.39494273 -1.10056275e-20 0.27793583 0.25637963
-0.123959795 1.2028162e-21 -0.20240729 -0.0012750528 2.4083366e-14 -2.1978498e-05 -0.03363873 6.4598935e-20
-0.16415483 0.14288117 0.1988141 1.8612097e-21 0.005095463 -6.0237136e-07 -2.316313e-05 -4.3534008e-09
-0.10713828 -2.9976163e-13 0.030412324 -0.22273606 3.781732e-15 9.69703e-21 -1.1367185e-05 -1.2450436e-19
-1.3728943e-16 -0.0017580194 -0.26965162 1.3239297e-07 0.098604344 0.17156392 -0.0053980295 0.00017942129
-0.00265352 -3.401514e-05 2.6335228e-10 4.997175e-08
00000000: 5bf0 ca3e f786 7339 706d febd 98af 2f3d
00000010: 8f9c 22bf 3737 0c28 219f 8dbe 3772 673a
00000020: 6cd1 c4ba 385f cfba 99a0 16b8 95d3 e51e
00000030: aaad c035 3170 b51d 99ee a3b3 8db7 8634
00000040: 30d5 011f d2bf 24b9 a0e7 26b6 939b 4c37
00000050: 2580 073f 77c7 e5a1 ef1d df3c 3fbf 4cbd
00000060: 7f8a 01be a9b7 0fa0 d49d c33b 93ef 3938
00000070: ff83 09b8 a681 23b2 83cd 82b8 9b0e 79b8
00000080: 8b6c a29d 25a2 acb6 cf63 ebaa 46b0 5eb1
00000090: f3a3 9838 28a3 b638 10ef 7f39 8675 e232
000000a0: af1b 11bc b0d2 181c c26c 05bf d2aa d43d
000000b0: 5182 8e3e be0a b41d 629e ffbd c2b4 98b8
000000c0: 1c39 72b9 ab3f 263a 9536 113f 006a 113b
000000d0: b298 cd3e 724f d6bd 1b5b a2be 0e3d 7235
000000e0: 13db 78be 47c8 cc36 0f57 631d 7ab8 0c39
000000f0: ef35 ca3e f3e3 4f9e 9b4d 8e3e 3144 833e
00000100: a2de fdbd b3c3 b51c db43 4fbe ac1f a7ba
00000110: 76ec d828 775e b8b7 c4c8 09bd a987 981f
00000120: 3418 28be 714f 123e ec95 4b3e 08a1 0c1d
00000130: d7f7 a63b a5b2 21b5 714e c2b7 eb94 95b1
00000140: 516b dbbd 34c0 a8aa 4423 f93c ec14 64be
00000150: 5240 8827 f62b 371e b0b5 3eb7 22fd 12a0
00000160: b048 1ea5 586d e6ba c70f 8abe e727 0e34
00000170: 13f1 c93d 74ae 2f3e f4e1 b0bb 0923 3c39
00000180: aee6 2dbb 7aab 0eb8 8ac7 902f 85a0 5633

fc4.bias f4 [10]
0.65617555 -1.3900695e-19 0.01369519 -1.4404437e-14 0.023870328 0.45856372 0.46815637 0.1278228
0.009988775 0.09486796
00000000: 1ffb 273f 461c 24a0 ca61 603c 5fbe 81a8
00000010: b58b c33c ddc8 ea3e 31b2 ef3e fbe3 023e
00000020: f5a7 233c 224a c23d

batch_norm4.weight f4 [10]
1.0 1.0 1.0 1.0 1.0 1.0 1.0 1.0
1.0 1.0
00000000: 0000 803f 0000 803f 0000 803f 0000 803f
00000010: 0000 803f 0000 803f 0000 803f 0000 803f
00000020: 0000 803f 0000 803f

batch_norm4.bias f4 [10]
0.0 0.0 0.0 0.0 0.0 0.0 0.0 0.0
0.0 0.0
00000000: 0000 0000 0000 0000 0000 0000 0000 0000
00000010: 0000 0000 0000 0000 0000 0000 0000 0000
00000020: 0000 0000 0000 0000

batch_norm4.running_mean f4 [10]
0.0 0.0 0.0 0.0 0.0 0.0 0.0 0.0
0.0 0.0
00000000: 0000 0000 0000 0000 0000 0000 0000 0000
00000010: 0000 0000 0000 0000 0000 0000 0000 0000
00000020: 0000 0000 0000 0000

batch_norm4.running_var f4 [10]
1.0 1.0 1.0 1.0 1.0 1.0 1.0 1.0
1.0 1.0
00000000: 0000 803f 0000 803f 0000 803f 0000 803f
00000010: 0000 803f 0000 803f 0000 803f 0000 803f
00000020: 0000 803f 0000 803f

fc5.weight f4 [1, 10]
0.92479414 -0.0006343434 0.38511232 6.7782524e-19 -0.24498396 0.31529793 0.34394813 -0.06140101
-0.07877466 -0.03865432
00000000: 4fbf 6c3f 114a 26ba 712d c53e 070f 4821
00000010: 13dd 7abe bb6e a13e f819 b03e a07f 7bbd
00000020: 9c54 a1bd fe53 1ebd
