models/nn1.pth (torch, 4992 bytes, 9 tensors)

fc1.weight f4 [10, 3]
000000 14 38 c3 3d 19 9f 5a 3e 9d 29 da 3e 8e f3 11 bf
       0.095321804 0.21349753 0.42609873 -0.5701226
000010 89 75 a1 be 8d d8 06 bf 1c ec 09 bf e4 6e 45 3e
       -0.31534985 -0.5267418 -0.538759 0.19280583
000020 c6 38 76 be 62 d4 8f be 7a 03 eb 3e 8e c7 2e 3c
       -0.24045095 -0.28091723 0.4590109 0.010667695
000030 59 7d b0 be 7c 5e 76 3e ca f1 6a be be 02 8d 3e
       -0.34470633 0.2405948 -0.22943798 0.27541155
000040 e2 8a a7 bd 9f ba fd be 10 f8 0b 3f 81 82 5c 3f
       -0.08180787 -0.49556443 0.5467539 0.86136633
000050 88 49 41 3e be 53 38 be e8 a0 d4 3e 52 0b af be
       0.18875706 -0.18000695 0.41529012 -0.34188324
000060 5e f1 78 be a0 63 82 bc 58 16 3e be 40 61 b8 be
       -0.24310824 -0.015916646 -0.18563211 -0.36011696
000070 ca 66 7d be 60 8e 7e be
       -0.24746242 -0.24858999

fc1.bias f4 [10]
000000 b2 a5 00 bf 56 4f f7 be 98 b9 92 3e 8b a2 26 bf
       -0.5025283 -0.48302716 0.28657222 -0.6509177
000010 61 25 a0 be f7 52 ea 3e 52 5e 95 3e b6 74 10 be
       -0.31278518 0.45766422 0.29173523 -0.14107022
000020 38 61 05 bf 70 d3 e6 be
       -0.5210147 -0.4508319

fc2.weight f4 [10, 10]
000000 d8 4b 31 be 12 53 73 be cd d0 94 3e 3f 0e 9f 3e
       -0.17314088 -0.23762158 0.29065552 0.31065556
000010 34 2a c9 3d 98 e1 f2 bd a0 12 95 bc 70 46 05 3d
       0.09822503 -0.11859435 -0.018197358 0.032537878
000020 ac 2c 9f bd 4a f8 cd bd 96 eb b8 be a8 80 8c 3d
       -0.07772192 -0.10057123 -0.36117238 0.06860477
000030 10 6e f3 3c d8 22 fe 3c f4 1a f1 bd cc a3 98 3e
       0.029715568 0.031022474 -0.11772719 0.29812467
000040 47 6a 8d 3e 78 3c 2e 3d 49 25 a1 be 5a e0 46 3e
       0.27620146 0.042538136 -0.3147376 0.19421521
000050 36 19 a3 be a0 ad 55 bd 3b 9e 02 be e2 0a 47 be
       -0.31855172 -0.052167535 -0.12755673 -0.19437745
000060 88 b9 15 3e 1d df 93 3e 76 ba e9 3e b1 d7 9c 3e
       0.14621556 0.2888116 0.4565007 0.3063331
000070 7d 33 75 be 6c 03 a1 3d f0 f8 6b bd 15 50 64 be
       -0.23945422 0.07861981 -0.057610452 -0.22296174
000080 e0 6b a6 bc c0 26 5f 3d 8a 29 5e 3e a4 ed 4d be
       -0.02031511 0.054480314 0.21695533 -0.20110184
000090 fa ef 83 be a4 6c ea bd 94 ea aa bd 30 f0 ea bd
       -0.25769025 -0.11446503 -0.083455235 -0.114715934
0000a0 7c 24 0a 3f 18 a2 66 be 60 8e f9 bc ee 9c 89 be
       0.5396192 -0.22522771 -0.030463398 -0.2687754
0000b0 a9 8c 17 be 85 04 0d 3c bc c2 be 3d c8 c6 70 be
       -0.14799751 0.008607035 0.093144864 -0.23513329
0000c0 e0 ca 7e bd 7f b3 32 be c3 b0 9a 3e 94 88 4e be
       -0.062205195 -0.17451285 0.30212983 -0.20169288
0000d0 48 b0 7d be 79 75 27 3e 8e 07 2a be 55 cf 8d be
       -0.24774277 0.16353406 -0.16604444 -0.27697244
0000e0 9f 2a f7 3e 64 79 46 be a6 61 6c 3e a4 dd 12 3e
       0.48274705 -0.19382244 0.23084125 0.14342362
0000f0 cb 8c 20 3d b6 02 47 3e 4e 9c 4d 3e e0 ba f5 3d
       0.03919677 0.19434628 0.20079157 0.11998534
000100 07 85 9d be 44 f9 66 be 40 60 37 be 34 8e f2 bd
       -0.30765554 -0.22556025 -0.1790781 -0.11843529
000110 58 49 76 3d 65 3d 8d be cc 9b c0 be a1 66 81 3e
       0.06012854 -0.27585903 -0.37618864 0.25273612
000120 20 94 a5 3d 26 6f 58 3e 0f 9f 7c be 90 69 82 3e
       0.08084893 0.2113615 -0.24670051 0.25471163
000130 ca b5 7f bd 01 9f 9b 3e 44 1c c4 3d 84 65 e6 bd
       -0.062429227 0.30394748 0.09575704 -0.11249831
000140 ea 7a d0 be 00 96 2b ba 19 dd 0d be 3c df c7 bd
       -0.40718776 -0.0006545484 -0.13853873 -0.097593755
000150 87 a5 9f be 08 26 ba 3e 85 78 d5 bd c9 94 95 be
       -0.31180975 0.3635714 -0.10423378 -0.29215077
000160 c2 4f 9d be 4b f1 14 be 42 d0 bb be d1 1d 26 be
       -0.30724913 -0.14545171 -0.36682326 -0.16222312
000170 ad 2e 93 be 45 64 ef 3d 7c 58 0c be ec 29 0d 3e
       -0.28746548 0.11689047 -0.13705629 0.13785523
000180 f6 b7 20 3e 38 e0 d3 bd f5 d1 8e 3e 68 84 0d be
       0.15695176 -0.10345501 0.2789456 -0.1382004

fc2.bias f4 [10]
000000 a0 08 1f bd 87 18 00 3f 91 c0 fe 3e 10 3b 6e be
       -0.038826585 0.50037426 0.49756292 -0.23264718
000010 39 64 b7 bd 88 98 0a 3d 01 5e 1b be 7b 57 37 3f
       -0.08954663 0.03383687 -0.15172578 0.7161786
000020 93 ad 26 3f e5 57 56 3f
       0.65108603 0.83727866

fc3.weight f4 [10, 10]
000000 cc 9f c6 3d 19 62 59 3d 48 4e d1 3d 9a 04 9d be
       0.096984476 0.05307207 0.10220009 -0.30667573
000010 1e 36 93 be 73 b7 fb 39 87 35 a0 be e1 76 54 be
       -0.28752226 0.0004801113 -0.31290838 -0.20748474
000020 22 35 9f be 4f d4 95 be 06 b7 4e 3e 98 93 94 3e
       -0.31095225 -0.2926354 0.20187005 0.29018855
000030 c0 c6 15 3e 99 1a a1 3e 85 fd 0b bf 11 52 48 be
       0.14626598 0.31465605 -0.54683715 -0.19562556
000040 d0 07 24 3e 37 6a 01 3f 5b ad de 3e 9d c3 f7 3e
       0.16018605 0.50552696 0.43491635 0.4839143
000050 9c b2 ff 3d 90 ee b7 bc ae de 5e 3e e0 4c 43 be
       0.12485239 -0.022452623 0.21764633 -0.19072294
000060 0a 9d 0b 3e a2 85 25 be 00 c2 b2 3b cc 0e cd bd
       0.13634124 -0.16164258 0.0054552555 -0.10012588
000070 5a e1 19 be ec 26 7c be 46 dd 16 3e 3a 67 06 3e
       -0.15027371 -0.24624223 0.14732847 0.13125315
000080 5a 54 32 be 40 0e 98 3b ed d7 8f 3e dc 21 8c bd
       -0.1741499 0.0046403706 0.28094426 -0.06842396
000090 e5 f9 78 3e 5e 0a 16 be 9e 2f 91 be 35 5a 91 be
       0.24314077 -0.14652392 -0.28356642 -0.28389135
0000a0 ea e7 88 be 90 ac 7d 3e dd ed 09 3d b1 ce 07 be
       -0.26739436 0.24772859 0.03367411 -0.1326244
0000b0 8c 36 50 3d d5 7d 37 3d e1 5f e5 3d c6 68 a8 3e
       0.05083327 0.044797737 0.11199928 0.32892436
0000c0 df 07 51 3f b6 54 7b 3e e0 78 81 bc 94 52 cb 3e
       0.81652635 0.24544033 -0.015804708 0.3971144
0000d0 cf 05 0d 3f 56 6e fa bd 5e 99 08 bd 6d 29 1e 3e
       0.5508699 -0.12228076 -0.033349387 0.1544549
0000e0 4c a9 88 3e 86 17 38 3f 45 dc fb 3e 42 31 cf 3e
       0.26691663 0.71910894 0.4919149 0.40467268
0000f0 50 12 95 3c 9e c5 0d 3e 07 2e d1 3e 1e e0 7a be
       0.018197209 0.13844916 0.4085543 -0.24499556
000100 82 d3 88 3e e7 56 a4 3e 4f 1a b9 bd 4e 02 b2 be
       0.26723868 0.3209755 -0.09038221 -0.34767383
000110 9c db 98 be 4f 98 78 be 5c 47 af 3d 0c fe 82 3e
       -0.2985505 -0.24276851 0.085585326 0.25584447
000120 8e 2a 51 3e b2 f6 6b be 44 a9 78 3e 1b df 27 3c
       0.2042639 -0.23043326 0.2428332 0.010246064
000130 e5 ba 91 3e cd 58 db 3e ae 11 0b 3f 92 3e 8f 3e
       0.28462902 0.42841187 0.5432385 0.27977425
000140 a0 5f 52 3c b3 56 0b be 5a 98 79 3e 42 fc 5a be
       0.012840182 -0.13607292 0.24374524 -0.21385291
000150 40 2b db bc d4 03 5d be 04 37 c6 bd a1 f8 9a 3e
       -0.026754022 -0.21583492 -0.09678462 0.30267814
000160 98 2b cf 3d 72 5e 87 be 9f 4f 9f 3e 73 75 08 3e
       0.10115737 -0.26439244 0.31115434 0.13326053
000170 62 07 06 3d 1e c8 20 be 93 18 c8 3d 90 fd 90 be
       0.032721885 -0.15701339 0.09770312 -0.28318453
000180 a2 85 72 3e 69 20 4c bd 83 7a 86 3e e7 88 9a 3d
       0.2368379 -0.049835596 0.26265344 0.07545643

fc3.bias f4 [10]
000000 8d fa 6a 3c 61 88 4c 3f d8 13 1c be bc f1 32 bf
       0.0143419625 0.798956 -0.15241945 -0.6990011
000010 20 dd bd 3e a7 16 ac 3e 65 78 2a be 5c 63 07 3f
       0.37082767 0.33611032 -0.1664749 0.52885985
000020 59 ea 8a be ad 2f b7 be
       -0.27131918 -0.3577856

fc4.weight f4 [10, 10]
000000 4d d5 ee bc 82 77 26 3f 96 b1 28 be 6a 1d 26 bd
       -0.029154444 0.65026104 -0.16473994 -0.040555395
000010 3e 96 6b 3e 9d fb 11 3e 76 ae 89 3d 69 69 dd 3e
       0.23006532 0.14256139 0.06722729 0.43244484
000020 14 21 a1 3d a9 de 0e be f4 9a 38 3b d0 86 37 3f
       0.07867637 -0.13952126 0.002816853 0.7169008
000030 61 8c a1 3e ef fe d6 3d cd 59 c8 3e 4f 1e c3 3e
       0.31552413 0.104978435 0.39131013 0.3810906
000040 a4 c2 45 bd fb 54 5e 3e d5 b4 91 3e 2f c1 0f bd
       -0.048281327 0.21712105 0.28458276 -0.035096344
000050 0b a1 3c 3e b7 fe 14 3f 0b b0 90 3e 79 0b d2 bd
       0.18420808 0.58201164 0.2825931 -0.102560945
000060 fc 17 95 3b a0 1b a3 3e 1f 56 7c 3d 5c 2f 42 3e
       0.0045499783 0.31857014 0.06160557 0.18963379
000070 f2 68 4a be 0a 75 1d 3e 78 4c 4e be c4 1a 05 bf
       -0.19766596 0.15376678 -0.20146358 -0.51993966
000080 5a a9 8c be 8e 54 a1 3d d7 68 ef 3d 61 ad 91 3e
       -0.27472955 0.07877456 0.116899185 0.2845259
000090 c6 1d 96 3e f7 2f b8 3d c5 af 94 3e 19 9f 09 bd
       0.2931959 0.089935236 0.29040352 -0.033598993
0000a0 c1 77 9a 3e 8b fb 04 be 2c 1b 10 3e da fc 93 bb
       0.3016949 -0.12986581 0.14072865 -0.0045162262
0000b0 6c 6f 6f 3e 39 06 53 3e f1 a7 d5 3e de 58 b4 be
       0.23382348 0.20607843 0.41729692 -0.3522405
0000c0 e7 b8 99 3e c4 2b 80 be 78 b8 40 be a8 9a 0f 3f
       0.30023882 -0.2503339 -0.18820369 0.5609536
0000d0 18 a4 48 bd 47 f6 6f 3e bc cf b3 3e a2 1e d0 3e
       -0.048984617 0.23433791 0.35119426 0.4064837
0000e0 83 aa 71 be 0b 94 a1 3e 8a 46 9a bd ba 48 1d be
       -0.23600201 0.3155826 -0.075329855 -0.15359774
0000f0 b7 b9 2d be 85 8c 40 3f e0 39 65 be be b5 d4 3e
       -0.16965376 0.75214416 -0.22385359 0.41544908
000100 1e 24 10 bd eb f3 00 3f 98 96 84 be 7d 0a d3 3e
       -0.035190694 0.5037219 -0.25896144 0.4121894
000110 74 8d 53 be 79 49 9e bd 09 08 1e be d6 0b 0e bf
       -0.20659429 -0.077288575 -0.15432753 -0.5548681
000120 c6 96 e3 bd 6f 93 c8 3d db 75 a0 3e 16 da 04 3d
       -0.11112742 0.09793746 0.31339917 0.032434545
000130 79 05 c5 3e 99 d0 b0 3e 1a 37 94 bd b0 09 23 3e
       0.38480738 0.34534147 -0.07237072 0.15921664
000140 66 16 06 3e e8 60 05 be 91 2d 81 3e 4a 18 cd 3e
       0.13094482 -0.13025248 0.25230077 0.40057594
000150 37 94 91 be 25 fa 87 be 83 88 83 3e 86 ee b2 bd
       -0.2843339 -0.26558033 0.25690088 -0.08736901
000160 3b 92 0d be 28 e7 61 3e 19 2e 97 be 2a 4a 13 be
       -0.13825314 0.22060835 -0.29527357 -0.1438376
000170 5a fd 52 be 38 ac 79 3e 52 be a0 3d 91 96 49 be
       -0.20604458 0.24382102 0.07848801 -0.19686343
000180 2d 12 25 be eb f3 51 3e 1e 3c 9c be 2c 6d b0 bd
       -0.16120215 0.20503204 -0.30514616 -0.08614573

fc4.bias f4 [10]
000000 65 8f f1 3e 05 e6 95 3e 99 ef e9 3d 45 4f 9c 3d
       0.47179714 0.29277053 0.11422653 0.07632307
000010 b3 28 50 3d 6c 32 a0 3d 78 43 70 3e 1c 15 3b bc
       0.050820064 0.07822117 0.23463237 -0.011418607
000020 6c 91 56 bf 5e 48 ae 3e
       -0.83815646 0.34039587

fc5.weight f4 [1, 10]
000000 a4 38 ba 3e ee 56 04 3f bf f8 07 3f ab 95 d0 be
       0.36371338 0.51695144 0.5311393 -0.40739188
000010 79 42 80 be 67 50 9a 3e d0 1c 01 3f 31 35 e9 be
       -0.25050715 0.30139467 0.5043459 -0.45548394
000020 ea 3d c8 3e d0 b9 43 bf
       0.39109737 -0.764554
