models/nn2.pth (torch, 10036 bytes, 25 tensors)

fc1.weight f4 [8, 2]
000000 fe 00 03 3f 42 4f 86 bf 19 20 81 3f d9 2e 75 3e
       0.5117339 -1.0492938 1.008792 0.23943652
000010 6c 83 0f 3f 99 82 71 be d8 2f 43 ba ab 38 9f bc
       0.5605991 -0.23584975 -0.0007445789 -0.019436201
000020 3b 74 73 b6 8e 4e 2c 22 7e 63 ba 3d 79 71 ec be
       -3.6277477e-06 2.3351933e-18 0.09101008 -0.46180323
000030 b1 ba 0a 3f dc 3a 16 bf 62 08 03 be fb ed 8f bd
       0.5419112 -0.5868356 -0.12796167 -0.07027813

fc1.bias f4 [8]
000000 3f e2 a8 be 6c 39 e3 bd 63 6e 87 3e 74 86 c0 bc
       -0.32985112 -0.11094937 0.26451406 -0.023501612
000010 e9 11 a6 bd a0 f7 12 3f 0f 5a 66 3e 2f e9 73 bd
       -0.08108885 0.57409096 0.22495292 -0.059548553

batch_norm1.weight f4 [8]
000000 00 00 80 3f 00 00 80 3f 00 00 80 3f 00 00 80 3f
       1.0 1.0 1.0 1.0
000010 00 00 80 3f 00 00 80 3f 00 00 80 3f 00 00 80 3f
       1.0 1.0 1.0 1.0

batch_norm1.bias f4 [8]
000000 00 00 00 00 00 00 00 00 00 00 00 00 00 00 00 00
       0.0 0.0 0.0 0.0
000010 00 00 00 00 00 00 00 00 00 00 00 00 00 00 00 00
       0.0 0.0 0.0 0.0

batch_norm1.running_mean f4 [8]
000000 00 00 00 00 00 00 00 00 00 00 00 00 00 00 00 00
       0.0 0.0 0.0 0.0
000010 00 00 00 00 00 00 00 00 00 00 00 00 00 00 00 00
       0.0 0.0 0.0 0.0

batch_norm1.running_var f4 [8]
000000 00 00 80 3f 00 00 80 3f 00 00 80 3f 00 00 80 3f
       1.0 1.0 1.0 1.0
000010 00 00 80 3f 00 00 80 3f 00 00 80 3f 00 00 80 3f
       1.0 1.0 1.0 1.0

fc2.weight f4 [8, 8]
000000 a1 47 52 be a5 10 68 3d 0b cb 37 3e 8b 93 16 bb
       -0.20535137 0.0566565 0.17948548 -0.0022976126
000010 c6 8b 82 3b ae 3c 48 38 f8 7b 41 be 0c 39 cd bb
       0.0039839474 4.774023e-05 -0.18894947 -0.006262904
000020 d6 9e 9d be aa 2a 67 bc 28 2d 88 3e 7a 98 97 ba
       -0.30785245 -0.014109293 0.2659695 -0.0011565827
000030 64 74 5c 22 d8 89 2f be 46 76 8d bd 3a 71 57 b3
       2.9877176e-18 -0.17142427 -0.069073245 -5.0161567e-08
000040 c5 27 23 be 03 d7 b7 bb 61 5a 8c be 47 fd 83 ba
       -0.1593314 -0.005610348 -0.27412704 -0.0010069989
000050 7c 6c 4c bb 86 7f 32 3d 47 74 18 3e 14 65 36 a6
       -0.0031192591 0.043578647 0.14888106 -6.328092e-16
000060 7b 07 83 3b 09 94 e9 ba 7a ce 30 ba 8d e0 a8 39
       0.0039986945 -0.0017820607 -0.00067446346 0.0003221076
000070 2d 2e 5a 99 57 a8 8d 38 14 37 58 bb 5a 6f c3 29
       -1.1279661e-23 6.75476e-05 -0.0032991813 8.679056e-14
000080 06 5b a2 3d 45 f1 2f 3d d2 05 04 3f c0 e4 bc 39
       0.079275176 0.042954702 0.5157138 0.00036028586
000090 f1 43 a5 bb 2f fe ce be 8d 2e cc 3e 8d b0 df b8
       -0.0050434996 -0.40428302 0.39879265 -0.00010666354
0000a0 f5 0c a5 be d2 62 86 be 30 3c 6c 3b 51 24 17 39
       -0.32236448 -0.2624727 0.0036046617 0.00014414011
0000b0 90 0c 78 b8 7d 38 3a 3e ed 64 28 be d1 f9 80 38
       -5.9139507e-05 0.18185611 -0.1644475 6.1500476e-05
0000c0 05 26 22 3f d1 94 b8 3e 38 bd 00 3f 3e ed 99 b8
       0.63339263 0.36051038 0.50288725 -7.339798e-05
0000d0 bc 0c 99 a8 7b d0 95 3e 71 66 b9 3e 81 ee c0 9d
       -1.6991935e-14 0.2926062 0.3621097 -5.1068584e-21
0000e0 cf 30 a5 bb cd 8e e6 bc b0 43 9f 3d 04 75 6d 1d
       -0.005041219 -0.028144265 0.07776582 3.1427184e-21
0000f0 f8 fe ef 2f 11 20 88 bd 20 18 66 bd ed 2e d8 b2
       4.3655013e-10 -0.06646741 -0.05617535 -2.5167049e-08

fc2.bias f4 [8]
000000 95 6a ab be 31 b3 be be e1 6a 2a 3d 77 30 19 ab
       -0.33479753 -0.37246087 0.041605834 -5.442378e-13
000010 75 61 72 3e 01 c9 32 3e 94 a6 c8 bd 31 75 0a bd
       0.2366999 0.1745949 -0.09797397 -0.03380317

batch_norm2.weight f4 [8]
000000 00 00 80 3f 00 00 80 3f 00 00 80 3f 00 00 80 3f
       1.0 1.0 1.0 1.0
000010 00 00 80 3f 00 00 80 3f 00 00 80 3f 00 00 80 3f
       1.0 1.0 1.0 1.0

batch_norm2.bias f4 [8]
000000 00 00 00 00 00 00 00 00 00 00 00 00 00 00 00 00
       0.0 0.0 0.0 0.0
000010 00 00 00 00 00 00 00 00 00 00 00 00 00 00 00 00
       0.0 0.0 0.0 0.0

batch_norm2.running_mean f4 [8]
000000 00 00 00 00 00 00 00 00 00 00 00 00 00 00 00 00
       0.0 0.0 0.0 0.0
000010 00 00 00 00 00 00 00 00 00 00 00 00 00 00 00 00
       0.0 0.0 0.0 0.0

batch_norm2.running_var f4 [8]
000000 00 00 80 3f 00 00 80 3f 00 00 80 3f 00 00 80 3f
       1.0 1.0 1.0 1.0
000010 00 00 80 3f 00 00 80 3f 00 00 80 3f 00 00 80 3f
       1.0 1.0 1.0 1.0

fc3.weight f4 [8, 8]
000000 5d b0 6d 3e 63 a8 36 be 0a 05 21 be 94 24 5a bb
       0.23211809 -0.17837672 -0.15724578 -0.0033285962
000010 18 a3 06 3e 17 05 84 bd 2e ce d4 3e a5 4f fc bd
       0.13148153 -0.06446283 0.41563553 -0.123198785
000020 5b 56 4b be 10 0d 45 3b 64 95 53 be 54 fb 1c bb
       -0.19857161 0.00300676 -0.20662457 -0.0023953514
000030 0b c9 43 3e e2 20 12 be a0 8c 22 3f 81 09 31 3e
       0.1911966 -0.14270356 0.63495827 0.17288782
000040 6a 8d e5 20 cc 02 64 af f8 f7 22 1c d8 6f 82 38
       3.888769e-19 -2.0737473e-10 5.3921796e-22 6.2197156e-05
000050 86 95 8b b2 c4 a4 36 31 5b 74 6d b7 3f 4a cd bb
       -1.6249725e-08 2.6578144e-09 -1.4153392e-05 -0.0062649543
000060 5f 97 08 3e f5 9c ef bc d7 23 1d bd f4 b1 23 3a
       0.13338993 -0.029249648 -0.038364258 0.00062444736
000070 46 62 30 3e c1 99 9b b6 94 5d 4d 3e c8 22 6a 3c
       0.17224988 -4.6372593e-06 0.20055228 0.014290519
000080 77 6b 64 bb ec 2d 30 b6 1f cd a5 b8 6e 6b 9d ba
       -0.0034854093 -2.6252774e-06 -7.90602e-05 -0.0012010166
000090 bd 16 cd 32 f2 cd 8d ae 4e f0 75 bb d3 f4 98 9b
       2.3875481e-08 -6.448521e-11 -0.0037527266 -2.5304505e-22
0000a0 9a cb af ba 62 1e 32 20 34 71 3b 24 ff 80 ca 9e
       -0.0013412118 1.5087239e-19 4.0645048e-17 -2.1440933e-20
0000b0 9d a5 64 3e 17 9c 34 3e f9 a4 9f 3e 78 86 fe bd
       0.22328801 0.17637669 0.31180552 -0.12427992
0000c0 a7 ae 7a a6 df 63 34 1f d0 e6 42 9e a6 18 1f 34
       -8.697287e-16 3.8199094e-20 -1.0318005e-20 1.4816996e-07
0000d0 c3 af 45 22 a5 53 66 ba 80 52 2f b3 bb 3d 86 3a
       2.6791526e-18 -0.0008786268 -4.0820396e-08 0.0010241786
0000e0 ae 40 38 3e 9d 69 47 39 9e 13 2f 3e 58 a3 86 ba
       0.17993423 0.00019017463 0.17097327 -0.0010272069
0000f0 5a a4 fd 3e cf a6 e2 be 30 e5 e5 3e 57 10 1e bd
       0.49539453 -0.4426789 0.4490142 -0.0385898

fc3.bias f4 [8]
000000 f5 c6 66 3c 4d 1c 8e 3e 59 1b ab bb 66 0d bc be
       0.014085521 0.27755967 -0.005221766 -0.36728972
000010 be 96 83 b3 40 f5 bf be 1b 63 12 21 a0 00 75 3e
       -6.127583e-08 -0.37491798 4.959789e-19 0.2392602

batch_norm3.weight f4 [8]
000000 00 00 80 3f 00 00 80 3f 00 00 80 3f 00 00 80 3f
       1.0 1.0 1.0 1.0
000010 00 00 80 3f 00 00 80 3f 00 00 80 3f 00 00 80 3f
       1.0 1.0 1.0 1.0

batch_norm3.bias f4 [8]
000000 00 00 00 00 00 00 00 00 00 00 00 00 00 00 00 00
       0.0 0.0 0.0 0.0
000010 00 00 00 00 00 00 00 00 00 00 00 00 00 00 00 00
       0.0 0.0 0.0 0.0

batch_norm3.running_mean f4 [8]
000000 00 00 00 00 00 00 00 00 00 00 00 00 00 00 00 00
       0.0 0.0 0.0 0.0
000010 00 00 00 00 00 00 00 00 00 00 00 00 00 00 00 00
       0.0 0.0 0.0 0.0

batch_norm3.running_var f4 [8]
000000 00 00 80 3f 00 00 80 3f 00 00 80 3f 00 00 80 3f
       1.0 1.0 1.0 1.0
000010 00 00 80 3f 00 00 80 3f 00 00 80 3f 00 00 80 3f
       1.0 1.0 1.0 1.0

fc4.weight f4 [8, 8]
000000 3f 6a 8e 3e 55 10 83 3e e0 ce 73 25 dc 63 12 3f
       0.27815434 0.25598398 2.1146982e-16 0.57183623
000010 02 c9 08 35 2b e7 c8 3e c2 90 65 39 83 51 a0 3d
       5.0956453e-07 0.39238867 0.00021893068 0.07828047
000020 20 fe 91 a6 79 55 c2 bb 61 d2 0e ba 3c a2 5a a2
       -1.0130277e-15 -0.0059305993 -0.0005448219 -2.9630395e-18
000030 b2 c3 61 24 c4 6c 6e 36 e2 95 11 b8 46 6e ab bb
       4.8954858e-17 3.5528074e-06 -3.4710283e-05 -0.0052316515
000040 6b c2 b7 3e 15 70 02 3f fb c8 cc 1e 94 75 a7 ba
       0.35890517 0.50952274 2.1682464e-20 -0.001277613
000050 02 fb a7 3a 80 28 a9 3e 68 4b 2d bb fa 1b 06 3f
       0.0012815895 0.33038712 -0.002644265 0.5238644
000060 9f 4b 7b bd 88 28 40 be b1 42 78 ba 54 71 08 be
       -0.061351415 -0.18765461 -0.0009470387 -0.13324481
000070 39 d9 4c 39 a4 1f cf 3d 49 58 ba b7 09 e1 af 3d
       0.00019535878 0.10113457 -2.2214039e-05 0.08587844
000080 ca 66 85 3d 43 8d 63 be b8 4e 57 b3 60 98 8e 3d
       0.06513746 -0.22221856 -5.0130183e-08 0.06962657
000090 81 e7 45 a8 66 3a 0f 38 73 63 5d b0 88 7a ed 3d
       -1.0985896e-14 3.4148245e-05 -8.054066e-10 0.115956366
0000a0 d2 37 35 9e 8a fb c5 ba 6f 83 ba bb fe 50 36 9d
       -9.5936036e-21 -0.0015104872 -0.0056919376 -2.4129371e-21
0000b0 4f 07 b8 b7 c2 9f 74 1c 1d 65 be 9c 7c de 35 b1
       -2.1937913e-05 8.093931e-22 -1.2599282e-21 -2.6465434e-09
0000c0 fc 39 e4 bd a8 15 f2 3d 97 eb fc 39 46 6c af 3e
       -0.11143872 0.11820537 0.00048240714 0.34262294
0000d0 38 2e 00 af ae b2 0b 3f b8 96 f6 3a 7d 2b 37 3e
       -1.1657952e-10 0.5456952 0.0018813228 0.17887683
0000e0 a9 49 4f 3e 74 13 18 be 44 19 20 ba 91 78 87 3e
       0.20242943 -0.14851171 -0.00061072805 0.26459172
0000f0 17 c9 2b bb 62 0e 74 bd 55 b6 89 b9 bf cf 6e bd
       -0.0026212388 -0.05958403 -0.00026266524 -0.05830359

fc4.bias f4 [8]
000000 b2 83 cd be 38 f6 75 25 39 c3 b9 bd bd 48 93 3e
       -0.40139538 2.1333785e-16 -0.09070439 0.28766432
000010 64 c5 6b be 3c 4c e0 22 6e c7 58 be bc 52 a5 3c
       -0.23024517 6.079604e-18 -0.21169826 0.020181052

batch_norm4.weight f4 [8]
000000 00 00 80 3f 00 00 80 3f 00 00 80 3f 00 00 80 3f
       1.0 1.0 1.0 1.0
000010 00 00 80 3f 00 00 80 3f 00 00 80 3f 00 00 80 3f
       1.0 1.0 1.0 1.0

batch_norm4.bias f4 [8]
000000 00 00 00 00 00 00 00 00 00 00 00 00 00 00 00 00
       0.0 0.0 0.0 0.0
000010 00 00 00 00 00 00 00 00 00 00 00 00 00 00 00 00
       0.0 0.0 0.0 0.0

batch_norm4.running_mean f4 [8]
000000 00 00 00 00 00 00 00 00 00 00 00 00 00 00 00 00
       0.0 0.0 0.0 0.0
000010 00 00 00 00 00 00 00 00 00 00 00 00 00 00 00 00
       0.0 0.0 0.0 0.0

batch_norm4.running_var f4 [8]
000000 00 00 80 3f 00 00 80 3f 00 00 80 3f 00 00 80 3f
       1.0 1.0 1.0 1.0
000010 00 00 80 3f 00 00 80 3f 00 00 80 3f 00 00 80 3f
       1.0 1.0 1.0 1.0

fc5.weight f4 [1, 8]
000000 fb a1 ac 3e 31 f0 86 b1 bd c2 06 3f 89 aa a0 bd
       0.3371733 -3.92722e-09 0.526409 -0.07845027
000010 aa 30 ed bd 3d d9 68 31 2d 7c 15 3e 62 d6 25 be
       -0.115815476 3.388393e-09 0.1459815 -0.16195062
