models/nn2.pth (torch, 4352 bytes, 9 tensors)

fc1.weight f4 [8, 2]
000000 e3 8e 22 bf 41 41 81 be cb 64 33 bf 56 9b b1 3e
       -0.6349928 -0.25245097 -0.7007567 0.34688824
000010 ba c4 c1 3d 36 80 c3 be 12 f2 64 3f b8 3b 7c 3f
       0.09461351 -0.38183755 0.8943187 0.98528624
000020 84 74 09 bf 8f ac 0f 3f 36 73 0d bf 6c b0 56 3e
       -0.53693414 0.5612268 -0.5525392 0.20965737
000030 10 44 1d 3f 13 4e 24 3f 54 bd 02 bf 30 99 87 bd
       0.6143198 0.6418163 -0.5107014 -0.06621015

fc1.bias f4 [8]
000000 1f 5a aa 3e 78 10 35 be eb 4a 55 3f 91 f0 b4 be
       0.33271882 -0.17682064 0.8331744 -0.35339788
000010 ea f2 a4 be a2 89 0a 3f db 7f 41 3e c0 77 be bc
       -0.3221658 0.5411626 0.18896429 -0.02325046

fc2.weight f4 [8, 8]
000000 34 e0 53 3d 53 6e b1 3e eb 4d 82 3e 23 aa fc 3e
       0.05172749 0.34654483 0.25450072 0.49348554
000010 d6 51 35 3e 48 f3 fd 3d 84 c5 9a 3d f0 29 f6 3d
       0.17706999 0.12399918 0.07557204 0.12019718
000020 cb 4d 35 be 34 94 9f 3d a7 70 0c 3f 3a e9 89 bd
       -0.17705457 0.077919394 0.54859394 -0.067339376
000030 86 08 81 be 3e 2a 43 3c 4e c3 86 bd 1c 39 9b be
       -0.25201815 0.011911927 -0.0658022 -0.30317008
000040 53 89 6c 3c 23 f8 8e 3e 4f ba 8c 3e a8 94 07 3f
       0.0144370375 0.27923688 0.27485892 0.52961206
000050 78 03 ec 3d 90 45 bc 3c 48 57 21 3f 4a e7 0d 3e
       0.11524099 0.022982389 0.63023806 0.13857761
000060 92 ce 76 be ca c8 46 3e d8 0d 4b be c3 21 c7 bd
       -0.24102238 0.19412532 -0.198295 -0.097232364
000070 70 b0 88 bd 5a 40 62 3e d8 e6 ac 3d c8 11 12 bd
       -0.06674278 0.2209486 0.084424675 -0.03566149
000080 cf cb 5b be 55 6b a5 be c9 68 5a 3e 5e 6e bf 3e
       -0.21464466 -0.3230845 0.21329035 0.3738889
000090 63 d5 8c 3e 54 33 30 bd 6d c9 b8 3e e0 5a 02 bd
       0.2750655 -0.0430177 0.36091176 -0.031824946
0000a0 31 ce 68 3e 94 a3 f4 3d 6e 6a 59 be d2 75 f9 bd
       0.22734906 0.119452626 -0.21232006 -0.121806756
0000b0 df 8c b4 3e 48 4a 32 3e dc 5a 33 3e 3d 9a 48 be
       0.35263726 0.17411149 0.17515129 -0.19590087
0000c0 2b 1e a3 3e 2e bc 08 3e 89 c3 91 3e 9e 07 2a 3f
       0.31858954 0.13353035 0.28469494 0.6641787
0000d0 66 13 51 3e 36 c7 31 3e 81 64 f7 3e 98 c2 c0 bd
       0.20417556 0.17361149 0.48318866 -0.09412116
0000e0 c3 f9 98 3e d4 4c d8 3d 93 ff da 3e ce 37 4e be
       0.29878053 0.10561529 0.42773113 -0.20138475
0000f0 54 08 db 3d 31 2f 3d bd 4b 6f 07 3e e0 69 2f be
       0.10694948 -0.046187583 0.13226049 -0.17130232

fc2.bias f4 [8]
000000 ac b3 4e 3e 60 33 42 3c 1f 63 12 be 8d e4 1a 3c
       0.20185727 0.011853069 -0.14295624 0.009453905
000010 eb 7f 9d 3e 8c 3c e5 bb 7f ba 69 be 58 93 11 3e
       0.30761656 -0.006995743 -0.22825049 0.14216363

fc3.weight f4 [8, 8]
000000 d1 1d b8 3e 37 a4 d3 be 18 46 ff 3e 3f 88 87 be
       0.35960248 -0.41336223 0.49858165 -0.26471135
000010 20 8c dc 3e cb 2f 5a be f8 c2 f9 3e b0 19 e6 be
       0.43075657 -0.21307294 0.48781562 -0.44941473
000020 30 60 fe 3c b8 a4 7a bd 68 01 76 be a6 bb a5 be
       0.031051725 -0.061192244 -0.24023974 -0.32369727
000030 0b c3 88 3e 10 be d0 bc 7e 06 93 be 37 1b a1 3e
       0.26711306 -0.025481254 -0.2871589 0.31466076
000040 34 38 a7 bc c6 13 e5 3e 58 61 e0 3d f7 88 ce 3d
       -0.020412542 0.44741648 0.10956067 0.10084718
000050 87 9b 31 be 55 31 d0 3d 32 31 36 ba 0b 84 99 3e
       -0.17344485 0.10165659 -0.00069500797 0.29983553
000060 0e 25 67 3e 38 aa 2e bd 19 56 6a be ea 5d 4a be
       0.22572729 -0.042642802 -0.22884406 -0.19762388
000070 c4 ff ab be 52 b4 38 3e e6 d8 61 3e cb 1b 84 3e
       -0.3359357 0.18037537 0.22055396 0.25802454
000080 10 34 3f bd da 7a 3a 3e 89 47 97 be 78 5d 45 3d
       -0.04668051 0.18210927 -0.29546764 0.048184842
000090 5c 5a d3 3d c0 bf da 3b 2c 35 d2 3d e0 40 84 3d
       0.10319969 0.0066756904 0.10264048 0.064576864
0000a0 e9 4e 94 be ce c7 43 3e ec cc a6 be 8a fe 3f 3e
       -0.28966454 0.19119188 -0.32578218 0.18749443
0000b0 60 05 56 3d 4f 78 2c be e2 17 23 3e 36 fe 5f 3e
       0.05225122 -0.16842769 0.1592708 0.21874318
0000c0 ee 07 40 3e 4b be 30 be 0a 84 2f be 57 af 8e be
       0.18753025 -0.17260091 -0.17140213 -0.2786815
0000d0 8c 92 d7 bd 76 fc 34 3e bf 4e 1d be 5e 3b 72 3e
       -0.105259985 0.17674431 -0.1536207 0.2365546
0000e0 22 cf dc bd 59 8f 95 3e fc 3c 12 3e d8 d2 44 bd
       -0.10781695 0.29210928 0.14281076 -0.04805264
0000f0 5b fc a4 be 77 8f a0 be 04 20 97 3d 68 e1 13 bd
       -0.32223782 -0.31359455 0.07379153 -0.036103636

fc3.bias f4 [8]
000000 e6 2f 00 3e d5 af b4 be bb f1 d9 3d 00 f1 51 3b
       0.12518272 -0.352904 0.106418096 0.0032034516
000010 1d 33 ab be a1 f8 4b be 24 db a4 bd fb a1 85 be
       -0.33437434 -0.19919063 -0.0804961 -0.26100144

fc4.weight f4 [8, 8]
000000 09 a9 d7 3e 28 f1 e5 3d 53 c3 b6 be 00 40 cc bc
       0.4212115 0.112276375 -0.35695896 -0.024932861
000010 79 21 94 be 12 9e 18 be b8 c4 77 3d e6 78 7f 3e
       -0.28931788 -0.14904049 0.06049034 0.24948463
000020 d4 75 a9 3e c4 eb 81 3d fa 65 a5 be 78 ba 8d 3d
       0.33097708 0.06343797 -0.32304364 0.06920332
000030 8f c7 a9 3e 8c b2 13 be 57 b8 75 be be d2 5f 3e
       0.33160064 -0.14423579 -0.23996101 0.21857736
000040 0c b4 e7 3e 70 cb 68 3d 40 85 9d be bc d3 3d be
       0.45254552 0.056834638 -0.30765724 -0.18537802
000050 15 ec 12 be e0 40 63 bc 00 2d fa ba e8 e8 95 be
       -0.1434787 -0.013870448 -0.0019086897 -0.29279256
000060 18 46 c3 3e 0d 4a 8f 3e 47 eb a1 be f8 cc a2 be
       0.38139415 0.27986184 -0.31624815 -0.31797004
000070 40 10 1d bc 3e 5a 9d be 44 c7 87 3d b9 aa ab 3e
       -0.009586394 -0.30732912 0.06629804 0.3352869
000080 51 87 c4 3e b9 d8 9e be 04 5a e7 be 78 a9 0c 3e
       0.38384488 -0.3102472 -0.45185864 0.13736522
000090 07 c5 33 be 00 53 7b 3b 54 06 a7 be 4a 85 07 be
       -0.17555629 0.0038349032 -0.32622015 -0.1323444
0000a0 70 c2 06 bc 2a 20 11 be ba 7d 80 be 15 0f 9d 3e
       -0.008225068 -0.14172426 -0.25095922 0.3067557
0000b0 49 9a 52 be bd 7d aa 3e 70 9c 4a bd 8c 3a 80 3d
       -0.20566668 0.33299056 -0.049465597 0.06261167
0000c0 81 74 bc 3c 68 ab 61 3d 31 31 30 3e 85 96 8b 3e
       0.023004772 0.055095106 0.17206265 0.27263275
0000d0 1f 87 87 3e 25 68 a7 3e e4 a0 67 be c0 c3 dd 3c
       0.26470277 0.32696643 -0.22619969 0.02707088
0000e0 32 8b 5f 3c d8 3a b2 bd 3a 89 56 3d ec f7 88 bd
       0.013644027 -0.0870263 0.052376963 -0.06687912
0000f0 c6 ca 92 be b3 45 5e be e0 68 83 bd e0 a2 7a 3c
       -0.2867033 -0.21706276 -0.06416488 0.0152976215

fc4.bias f4 [8]
000000 a0 46 06 bd f6 0f f0 3e 7f 8a f5 3d 4e 64 8d 3e
       -0.032782197 0.46887177 0.11989307 0.2761559
000010 a4 27 cd 3e 28 ee 2b bc 2f fd 9e be da e9 36 be
       0.40069306 -0.010493793 -0.3105254 -0.17862645

fc5.weight f4 [1, 8]
000000 8b 50 55 3e d6 bc 0e 3f 03 c7 db 3e 71 16 34 3e
       0.20831506 0.5575689 0.4292527 0.17586686
000010 d3 f2 eb 3e d2 80 f4 bd 5f 31 8b be 1e ed 75 bd
       0.46083698 -0.11938633 -0.27186105 -0.060040586
