models/nn2.pth (torch, 5988 bytes, 13 tensors)

network.0.weight f4 [8, 2]
0.74464065 -0.115569375 -0.4630729 0.21373522 -0.7201456 -1.155998 -0.30369893 -0.07873121
-0.07305244 -0.7700316 0.80199 0.6706363 -0.57451797 0.011474422 0.22824179 -0.19971535
00000000: c5a0 3e3f a3af ecbd e417 edbe 68dd 5a3e
00000010: 765b 38bf bef7 93bf 6d7e 9bbe d43d a1bd
00000020: 859c 95bd ca20 45bf 374f 4d3f d2ae 2b3f
00000030: 9c13 13bf 37ff 3b3c 37b8 693e 2e82 4cbe

network.0.bias f4 [8]
0.22010237 0.23207727 0.7166223 -0.2655999 0.58009654 0.40619636 0.6073487 -0.2913506
00000000: 8462 613e aaa5 6d3e 8f74 373f b6fc 87be
00000010: 3581 143f f8f8 cf3e 347b 1b3f e82b 95be

network.2.weight f4 [8, 8]
0.2849266 -0.42444822 -0.2617158 -0.006225258 -0.2731067 0.3478301 -0.25374198 -0.045978915
0.38223484 -0.3499711 -0.9962199 -0.22246791 -0.19112831 0.5475713 -0.20461929 0.220756
0.062947586 0.102941506 0.46914142 -0.0072934264 0.668864 -0.007346747 0.6315443 -0.23393156
0.54439586 -0.077092685 -0.79258496 0.1504863 -0.23311311 0.400133 -0.15849592 0.1978887
0.48400217 -0.17557523 0.15717909 -0.36622784 -0.3827647 0.10662263 -0.08870204 0.28021678
-0.38335702 0.1258819 0.42943543 0.02093983 0.22077371 -0.06347037 0.37810495 -0.28933358
-0.4470607 0.06874834 0.92516434 0.05788734 0.50305045 -0.3405917 0.34165254 -0.07071718
-0.4801986 0.05646653 0.3824121 0.1969787 0.19158892 -0.10028335 0.3710076 -0.36846626
00000000: e6e1 913e 4751 d9be 9dff 85be 40fd cbbb
00000010: a4d4 8bbe c916 b23e 78ea 81be 6354 3cbd
00000020: 49b4 c33e 692f b3be 4408 7fbf a1ce 63be
00000030: 24b7 43be a22d 0c3f b887 51be dc0d 623e
00000040: aaea 803d ffd2 d23d 4e33 f03e b2fd eebb
00000050: ac3a 2b3f fbbc f0bb e3ac 213f c18b 6fbe
00000060: 875d 0b3f c5e2 9dbd d9e6 4abf 1519 1a3e
00000070: 34b5 6ebe 3cde cc3e c14c 22be 56a3 4a3e
00000080: 22cf f73e fec9 33be 8ef3 203e 3782 bbbe
00000090: bcf9 c3be f75c da3d 6aa9 b5bd 9378 8f3e
000000a0: 5f47 c4be 2fe7 003e f6de db3e 028a ab3c
000000b0: 8112 623e c1fc 81bd f996 c13e 8823 94be
000000c0: 24e5 e4be eecb 8c3d 92d7 6c3f 471b 6d3d
000000d0: eac7 003f 0962 aebe 15ed ae3e 2bd4 90bd
000000e0: 97dc f5be 7349 673d 85cb c33e c9b4 493e
000000f0: e32f 443e 5b61 cdbd b5f4 bd3e 9ca7 bcbe

network.2.bias f4 [8]
-0.16655235 0.074578606 0.32722026 0.11269302 -0.3227246 -0.10557946 0.29569966 -0.17196211
00000000: b38c 2abe abbc 983d 6a89 a73e 99cb e63d
00000010: 293c a5be 0b3a d8bd f265 973e d616 30be

network.4.weight f4 [8, 8]
0.14099312 -0.042430766 -0.509224 0.25339037 0.48789024 -0.34912446 -0.21097927 -0.26860362
0.43084088 0.10128651 -0.37596506 0.33526835 0.106421046 -0.022832366 -0.5344421 -0.1881784
-0.039601576 -0.22616845 0.21336348 -0.52890056 -0.39270073 0.096805125 0.5627526 0.17241283
0.0824742 -0.5049036 -0.2748966 -0.04340391 -0.43671533 -0.08612383 0.29384258 -0.0020250448
-0.32086548 -0.09752357 -0.03541331 -0.5147426 -0.3632614 -0.05894814 0.078567356 0.02705193
0.23145293 -0.1514149 0.22432734 -0.16532208 0.094560124 -0.30546254 -0.07280462 -0.086392075
0.29597047 0.16232301 0.08711553 0.0297596 0.47274306 0.045757134 -0.22347938 -0.055239815
0.26996943 0.5238993 -0.064498894 0.501243 0.42227855 -0.20178136 -0.3692313 -0.44550863
00000000: 8060 103e e2cb 2dbd 815c 02bf 62bc 813e
00000010: c0cc f93e 71c0 b2be f30a 58be 6a86 89be
00000020: 2d97 dc3e 4d6f cf3d 7e7e c0be 4ba8 ab3e
00000030: 47f3 d93d f10a bbbc 33d1 08bf d7b1 40be
00000040: 4335 22bd b498 67be f57b 5a3e 0766 07bf
00000050: 1210 c9be c441 c63d 8e10 103f fd8c 303e
00000060: 3ce8 a83d 5d41 01bf 3fbf 8cbe 4cc8 31bd
00000070: 2799 dfbe b161 b0bd 8972 963e 9db6 04bb
00000080: 7b48 a4be 70ba c7bd 8c0d 11bd 2cc6 03bf
00000090: 66fd b9be 9b73 71bd ece7 a03d 029c dd3c
000000a0: ff01 6d3e 820c 1bbe 11b6 653e 314a 29be
000000b0: bda8 c13d 9665 9cbe 971a 95bd 54ee b0bd
000000c0: 7189 973e 0138 263e a169 b23d 68ca f33c
000000d0: 610b f23e d56b 3b3d c7d7 64be 2543 62bd
000000e0: 6f39 8a3e 441e 063f ff17 84bd 7651 003f
000000f0: e534 d83e c69f 4ebe e30b bdbe b519 e4be

network.4.bias f4 [8]
-0.056790512 -0.24607444 -0.21169807 0.19499457 -0.21137546 0.6121262 -0.27326226 0.24788994
00000000: 2b9d 68bd f0fa 7bbe 61c7 58be a8ac 473e
00000010: cf72 58be 4db4 1c3f 08e9 8bbe dcd6 7d3e

network.6.weight f4 [8, 8]
-0.47162482 0.03552759 0.49632114 0.10015607 0.28621066 0.047710247 -0.33074805 -0.44278795
0.0827535 -0.06754824 0.16262168 0.22174647 -0.19484285 0.008324327 -0.20057127 0.31905374
-0.25565025 0.041012116 0.6518869 0.10546172 0.2541837 0.2201955 -0.10837954 -0.6159074
0.35088965 0.44347498 -0.27812096 -0.35981262 -0.047663465 -0.34353754 0.10032363 0.4577423
-0.32068706 0.071087964 0.5257733 0.10582024 0.15562238 0.14453 -0.03957987 -0.48069203
0.43102467 0.38173914 -0.40226215 -0.0076970863 -0.50494224 -0.3056663 0.30863798 0.46344778
-0.04506233 0.47826394 -0.4519126 -0.356376 -0.18028846 0.029304978 0.34910545 0.49871895
-0.20647784 -0.16295253 -0.40583095 0.053958636 -0.35832 -0.21070768 -0.09169959 0.46225467
00000000: cf78 f1be 6185 113d ce1d fe3e a01e cd3d
00000010: 348a 923e d26b 433d cf57 a9be 1ab5 e2be
00000020: ab7a a93d bb56 8abd 4c86 263e 8211 633e
00000030: e284 47be c262 083c 8e62 4dbe 035b a33e
00000040: 97e4 82be 52fc 273d 0fe2 263f 50fc d73d
00000050: 5e24 823e ee7a 613e 18f6 ddbd 1bac 1dbf
00000060: cfa7 b33e 270f e33e df65 8ebe 5c39 b8be
00000070: c43a 43bd 27e4 afbe 7a76 cd3d 335d ea3e
00000080: 1831 a4be 9196 913d 1499 063f 48b8 d83d
00000090: 795b 1f3e acff 133e 801e 22bd 441d f6be
000000a0: 44af dc3e 5073 c33e 4ef5 cdbe d737 fcbb
000000b0: e543 01bf 4b80 9cbe cc05 9e3e 0749 ed3e
000000c0: 4793 38bd 03df f43e 1761 e7be ea76 b6be
000000d0: 8a9d 38be fe10 f03c f3bd b23e 1758 ff3e
000000e0: ed6e 53be 07dd 26be 13c9 cfbe bb03 5d3d
000000f0: b875 b7be c1c3 57be ffcc bbbd a5ac ec3e

network.6.bias f4 [8]
-0.021029105 0.08407553 -0.08021354 0.20692086 -0.004288289 -0.28665307 0.16682886 -0.1469705
00000000: 3b45 acbc cb2f ac3d ff46 a4bd 10e3 533e
00000010: c784 8cbb 31c4 92be 2fd5 2a3e 6f7f 16be

network.8.weight f4 [8, 8]
0.107765086 -0.08898233 0.10809316 -0.1826169 0.06559369 -0.017099742 -0.22382934 -0.34263116
0.6579354 -0.4747796 0.8308473 -0.24917762 0.33968174 -0.27883336 -0.43726066 -0.34239694
-0.0101473 -0.10267939 -0.012780897 0.18445267 -0.022497796 -0.42959103 -0.3994746 -0.05259194
-0.17250934 -0.1025012 -0.32405007 -0.10959055 -0.4276231 0.54443663 0.25099498 0.2243785
-0.42431158 0.4118726 -0.35848543 0.47558048 -0.23847677 0.2660266 0.5326435 -0.12769975
0.19255792 -0.10544323 -0.062001545 -0.2775 0.16694006 -0.2853006 -0.35245466 -0.41612408
-0.3840141 0.09014837 0.08748854 0.5122535 -0.051687114 0.3643677 0.3508405 0.26903632
-0.026771454 0.0048529888 -0.058051772 0.09252491 0.15452601 -0.021062696 -0.07465489 -0.38368306
00000000: f1b3 dc3d 5e3c b6bd f25f dd3d edff 3abe
00000010: fc55 863d c214 8cbc 8533 65be 5a6d afbe
00000020: 746e 283f 5016 f3be 69b2 543f 6b28 7fbe
00000030: c4ea ad3e 3fc3 8ebe a1e0 dfbe a74e afbe
00000040: dc40 26bc 9249 d2bd f866 51bc 29e1 3c3e
00000050: 4c4d b8bc 5bf3 dbbe ef87 ccbe a56a 57bd
00000060: 4aa6 30be 26ec d1bd e4e9 a5be 0371 e0bd
00000070: 6af1 dabe 3360 0b3f 6a82 803e 7ac3 653e
00000080: 5e3f d9be f7e0 d23e 678b b7be 497f f33e
00000090: 4133 74be a334 883e 535b 083f b9c3 02be
000000a0: e72d 453e 9ff2 d7bd 55f5 7dbd 7b14 8ebe
000000b0: 56f2 2a3e ec12 92be f074 b4be 370e d5be
000000c0: 7f9d c4be b59f b83d 312d b33d 0c23 033f
000000d0: deb5 53bd 678e ba3e 5ea1 b33e 21bf 893e
000000e0: cf4f dbbc d205 9f3b b2c7 6dbd b37d bd3d
000000f0: 113c 1e3e ad8b acbc aae4 98bd 1b72 c4be

network.8.bias f4 [8]
-0.02386888 0.18090564 -0.22305904 -0.1588146 -0.23654214 0.09880724 -0.2690951 -0.20402575
00000000: ab88 c3bc 543f 393e 9769 64be 4ba0 22be
00000010: 1a38 72be 735b ca3d d5c6 89be 20ec 50be

network.10.weight f4 [8, 8]
0.083438836 0.0020214275 0.09252003 -0.2156178 0.048583917 -0.024555568 -0.22035111 0.10458492
-0.10048892 -0.12451364 -0.2588226 0.15894109 0.3114696 -0.16872148 0.41647303 0.070458844
-0.23211394 -0.11096715 -0.098977014 -0.044071347 0.2045548 0.28692153 0.11172288 0.21348199
0.060890887 0.18236962 0.016579116 0.10295128 -0.1762041 0.13960871 -0.2284709 -0.118590966
-0.107713155 -0.35212597 -0.0959199 0.43730763 0.407378 -0.19709782 0.21207744 -0.12512495
0.14243072 -0.0086256545 0.16177219 -0.11843506 -0.3334534 -0.10767888 -0.40997437 -0.34824193
-0.13621156 -0.05194471 0.1787664 0.086079165 0.0866729 -0.03279314 0.07489373 0.3250987
0.1511533 -0.034133267 0.21649376 -0.032068536 -0.021629907 -0.2145083 -0.27871367 -0.30765536
00000000: fbe1 aa3d ed79 043b 247b bd3d eaca 5cbe
00000010: eeff 463d c228 c9bc b9a3 61be 9e30 d63d
00000020: 23cd cdbd 0201 ffbd 6584 84be 74c1 223e
00000030: f278 9f3e 53c5 2cbe f43b d53e ba4c 903d
00000040: 47af 6dbe bf42 e3bd 76b4 cabd 2884 34bd
00000050: d076 513e 61e7 923e f7ce e43d 069b 5a3e
00000060: b968 793d 1abf 3a3e edd0 873c 1fd8 d23d
00000070: d96e 34be 96f5 0e3e 47f4 69be d2df f2bd
00000080: b798 dcbd db49 b4be a771 c4bd c9e6 df3e
00000090: d993 d03e 03d4 49be d42a 593e c120 00be
000000a0: 5cd9 113e 9e52 0dbc 9ca7 253e 158e f2bd
000000b0: 67ba aabe bf86 dcbd 29e8 d1be c44c b2be
000000c0: 0b7b 0bbe fac3 54bd 8a0e 373e 464a b03d
000000d0: 9081 b13d 1952 06bd e261 993d 5673 a63e
000000e0: eec7 1a3e 53cf 0bbd 8ab0 5d3e 4c5a 03bd
000000f0: 3431 b1bc 10a8 5bbe 8fb3 8ebe 0185 9dbe

network.10.bias f4 [8]
-0.19183964 -0.0023180626 -0.011581526 -0.20752712 0.31532526 -0.12089759 -0.20933372 0.081800014
00000000: 9c71 44be a3ea 17bb 71c0 3dbc fd81 54be
00000010: 5072 a13e 2899 f7bd 945b 56be c486 a73d

network.12.weight f4 [1, 8]
0.12340034 0.17783272 0.18172394 -0.1776112 0.5080055 -0.5085024 0.07905103 -0.055463832
00000000: 51b9 fc3d c819 363e d715 3a3e b6df 35be
00000010: a60c 023f 372d 02bf 82e5 a13d 0b2e 63bd
